models/mic_classifier/layers/WittenAMPRegressor_dense_b/0_weight.npy (npy, 8128 bytes, 1 tensors)

array f4 [100, 20]
000000 38 a0 01 3b cd 4c 76 be 31 98 19 3e 35 d1 c9 bd
       0.0019779336 -0.24052735 0.14999463 -0.09854356
000010 7c 3f d2 bd 54 d9 96 bd a3 91 c7 3c a4 8d 26 3e
       -0.10266015 -0.07365671 0.024361437 0.16264969
000020 5a ac 06 3d f9 5d 6b be 37 f5 f0 3d a6 f7 79 be
       0.03287921 -0.22985066 0.11765521 -0.24410877
000030 98 a7 ad bd e6 ba 6e be 67 be 8a be 95 21 2c 3d
       -0.084792316 -0.23313484 -0.2709839 0.042024214
000040 4c 15 fa bd b6 7e 47 bc c9 08 fc 3d a6 11 2b bd
       -0.12211093 -0.012176206 0.12306363 -0.041764878
000050 bb d4 88 3d 1a 5e 4d 3d f2 3f 5e 3e b9 4c 4b bd
       0.066812 0.05013857 0.2170408 -0.049633715
000060 15 60 91 3d a2 07 74 3e 26 84 32 3e 96 e8 23 be
       0.07098404 0.23831037 0.17433223 -0.16006693
000070 97 6d c8 bd 34 bc 6e 3c d5 64 6e be 92 e5 0c be
       -0.097865276 0.014571238 -0.23280652 -0.13759449
000080 4c d0 d2 3b 10 f1 7f bd 30 b4 76 be 38 05 2c be
       0.0064335223 -0.062485754 -0.24092174 -0.16798866
000090 f1 51 5a be 0e cb a3 3d 9d 0a 01 3e 73 66 91 bd
       -0.2132032 0.07997714 0.12601705 -0.07099619
0000a0 36 7f e3 bd 8e 70 16 3e f1 ab 06 be 2c 6b 45 3e
       -0.11108248 0.14691374 -0.13151528 0.19279164
0000b0 7d c6 74 3d ed 33 7e 3d d7 57 b2 3d 3b d1 f7 bb
       0.059759606 0.06206124 0.0870816 -0.007562784
0000c0 b4 28 2c 3e 3a 2b ed 3b 4c 0d b1 3c 4e f2 2f 3e
       0.16812402 0.007237819 0.021612786 0.17182276
0000d0 1f 7a 5e 3d d6 e9 16 be df 8e 3f be 19 81 e4 3d
       0.054315683 -0.14737639 -0.18706845 0.11157436
0000e0 d9 4f 22 3e 92 4d 21 be 14 9f 81 be 05 68 51 bd
       0.15850772 -0.15752247 -0.2531668 -0.05112459
0000f0 4f bf 63 be 49 16 2a be 08 c5 af bc 8c 8c 2a be
       -0.22240947 -0.16610064 -0.021456257 -0.16655177
000100 b1 37 2f be 06 20 fc 3c b1 cb 2c 3d 63 d3 56 be
       -0.17111088 0.030776989 0.042186443 -0.20979075
000110 8d f9 36 bd 85 ef 81 3c bd 98 3b be 9c 31 35 3c
       -0.044671584 0.015861282 -0.18319984 0.011059191
000120 cd 13 65 be 7b 0b 53 3e ed 05 e7 bd 81 f7 50 be
       -0.22370835 0.20609848 -0.11280427 -0.20406915
000130 81 dd 65 3e 6e 02 44 be 3a 68 59 be c3 af e5 3b
       0.22447778 -0.19141552 -0.21231166 0.007009478
000140 0d 7e e5 3d b1 8f 9b 3b bd 28 dc bd e5 dd 09 bd
       0.11205683 0.004747354 -0.10749958 -0.03365888
000150 e3 ae c7 bd 30 0e 48 be 6b bd 91 bb 73 74 74 be
       -0.09750154 -0.19536662 -0.004447629 -0.23872547
000160 74 09 68 be 2e 0e 91 be 8a 6e 8b be 3d dd 8a bb
       -0.22659856 -0.2833113 -0.27232772 -0.0042377994
000170 fd 17 30 be 13 28 09 be f2 e6 bd 3c 07 e0 2d be
       -0.17196651 -0.13394193 0.023181412 -0.16979991
000180 83 66 82 3e c9 6b 49 3d fd 10 5d 3e b6 9e 82 be
       0.25468835 0.049175058 0.21588512 -0.25511712
000190 f5 8b b5 bd 21 46 bb 3d 8b a4 04 bd 20 00 41 3c
       -0.08864585 0.091442354 -0.032383483 0.011779815
0001a0 c2 9b 4c bd 94 45 36 be 04 e0 f2 bd 71 04 67 be
       -0.04995323 -0.1779998 -0.11859134 -0.22560288
0001b0 23 04 d6 bd fd ed 6f 3d 90 48 aa 3d fd e5 60 3d
       -0.10450008 0.058576573 0.083146214 0.054906834
0001c0 22 af 0b 3e 06 f5 0b be 7a 77 84 be 7f 69 fb bd
       0.13641027 -0.13667688 -0.25872403 -0.12275981
0001d0 7b a0 41 3e 68 97 27 bd d9 61 19 be 12 44 81 bd
       0.18908875 -0.040915877 -0.14978732 -0.063118115
0001e0 9e e4 10 be 11 27 8f 3d 2a a7 15 be b3 8d 34 bd
       -0.1414971 0.06989873 -0.1461455 -0.044080447
0001f0 80 f8 61 3d 5a b7 03 be 7a 6c 99 3d e1 18 31 3e
       0.05516863 -0.12862912 0.074913934 0.17294647
000200 e4 5e e1 3d 3e 3f 47 be 6b 05 d8 3d 1f 97 45 be
       0.11004427 -0.19457719 0.105479084 -0.1929593
000210 f0 e5 41 bd fd 29 93 3d 1f b0 98 bd 7f a0 e2 3d
       -0.047338426 0.07185743 -0.074554674 0.110657685
000220 46 ce 85 3d 02 5d f8 bd 0f 5f 9c bb 09 98 46 3e
       0.06533484 -0.12127115 -0.004772074 0.19393934
000230 c3 f7 09 be b1 7b d8 3d 8a 70 a4 bd 43 b7 49 be
       -0.1347342 0.10570467 -0.080292776 -0.19698815
000240 aa 7c 22 be 22 a0 17 be fa 64 7e 3c bc 6d 0d be
       -0.15867868 -0.1480718 0.015527004 -0.13811392
000250 97 09 7d 3d 03 42 90 bd c7 cf b9 bd 4b 67 51 be
       0.061776724 -0.07043841 -0.090728335 -0.2044956
000260 36 c9 12 be 67 4b 47 3e 3c ae bb 3d 6c a9 34 3e
       -0.14334568 0.19462357 0.09164092 0.17642754
000270 63 f7 d0 bd 68 c2 82 3d 91 c8 67 3e 0e 19 ee 3d
       -0.10203435 0.06384736 0.22635104 0.116258726
000280 d0 77 b5 be dd cd e1 3c 34 ce 17 be 0c 0a 65 bd
       -0.35442972 0.027563984 -0.14824754 -0.055917785
000290 e3 88 8b 3d ef ed 3a 3e 4f e8 c0 3c f8 63 98 bd
       0.068132184 0.18254827 0.023548273 -0.074409425
0002a0 56 74 24 3d 8c f2 a9 3e f5 cc 98 3d 0e 83 56 be
       0.04015001 0.3319286 0.074609675 -0.20948431
0002b0 8b 39 60 be 7d aa 07 3e 4e c4 b0 be cc 66 84 be
       -0.21896951 0.1324863 -0.3452477 -0.25859678
0002c0 35 63 a0 3d f7 60 31 3e a1 aa d7 bb bd 1a 57 3e
       0.07831422 0.17322145 -0.00658162 0.21006294
0002d0 bb 66 ef 3a c4 39 46 3e 44 e6 36 be ed 78 10 be
       0.0018264869 0.19357973 -0.17861277 -0.1410863
0002e0 5a 9b 20 3e 7a 17 2b 3e cf 4f 39 be 1e ba 24 3d
       0.15684262 0.16708174 -0.18096851 0.040216558
0002f0 ac bf 19 3e 66 ff 10 bd eb 76 6a 3e f3 50 39 3d
       0.15014523 -0.035399817 0.22896926 0.045243215
000300 29 61 13 be 3c 79 97 3d 95 17 12 3e a2 fc 5a 3e
       -0.14392532 0.073961705 0.14266808 0.21385434
000310 d8 67 76 be 11 29 0c bd 40 f8 00 be 1e d7 c9 3d
       -0.24063051 -0.03421885 -0.125947 0.098554835
000320 98 1e 32 3e 17 93 80 be 54 8b 13 be e1 7a 0e 3e
       0.17394483 -0.2511222 -0.14408618 0.13914062
000330 13 ec 91 bb 86 61 9b 3d 98 91 40 be 99 c9 c9 3d
       -0.004453191 0.075869605 -0.1880554 0.09852905
000340 a1 8b 02 be e4 7b 10 be 23 05 ac 3d ec 3c fd bd
       -0.12748577 -0.1410976 0.08399417 -0.123651356
000350 fa 13 34 be 13 4a 25 be a4 6b 80 be 66 4e c6 3d
       -0.17585745 -0.16141538 -0.25082123 0.09682922
000360 c4 2b 19 be a7 03 14 3c 5c 35 40 be 2b 06 11 be
       -0.14958102 0.009034074 -0.18770355 -0.14162509
000370 d1 71 2d bd f4 32 07 be 3a 13 d2 3d 21 7f 13 be
       -0.042344872 -0.13203031 0.102575734 -0.14403965
000380 8d e8 97 3c 40 91 22 3e bc f7 ed bd cb 3b 37 be
       0.018543506 0.15875721 -0.11619517 -0.17893903
000390 39 cf d1 bd 55 c6 28 3d c1 5c 26 bd 5a f9 95 3c
       -0.10244603 0.04120477 -0.0406158 0.018307377
0003a0 88 5a 47 3e 7d c8 2c be 8d 9a f1 bd 3d 91 1b 3e
       0.19468129 -0.16873355 -0.11797056 0.15192123
0003b0 f3 4a 2b 3d d7 cf 7d be 1b 63 47 3e eb 92 ca 3c
       0.041819524 -0.24786316 0.194714 0.02472826
0003c0 f4 8b da bd 09 06 a0 be f7 d1 4d be cc 34 32 3e
       -0.10671225 -0.31254604 -0.20099626 0.17402953
0003d0 5e f6 27 bb 4d e7 a1 3d bb e4 2e be 66 e1 17 3e
       -0.0025629024 0.07905445 -0.17079441 0.14832076
0003e0 68 c6 83 3c 67 6a a9 bd 00 fe 01 bd 09 9a 24 3e
       0.016085818 -0.08272248 -0.031736374 0.16074385
0003f0 06 80 0a be 7c 45 bb 3c bd 5d 4e be ad c2 4a be
       -0.135254 0.022860281 -0.20152946 -0.19800825
