models/mic_classifier/layers/WittenAMPRegressor_gru_a/0_weight.npy (npy, 98432 bytes, 1 tensors)

array f4 [128, 192]
00000000: 2ae6 ae3e cfac 19bc 5feb cabd f977 7ebe
00000010: 619a 0e3e f778 bd3d 32c8 65bd a35a 53be
00000020: 71dd 3e3e 4aa5 dc3c 540f 59be de0b 2e3d
00000030: 44df 5e3e 7818 9e3e 5f86 36be 2bba f03e
00000040: 197c 48be fe7b 273d 5e8c 6a3e 1c7e 253e
00000050: fa96 59be 12df b5bd 8cee 66be d539 4cbe
00000060: bbb8 95bd f70d acbe 4a6c 173d 8f40 3a3e
00000070: dc9a 883e 7504 1d3e 0cd3 253e 1231 c3bd
00000080: d98c 8d3e e37e c13e 7af2 713c 410b dc3d
00000090: d591 b43e ef48 f13e 9a65 b8be b59e 283e
000000a0: f58b 87be 2a35 9c3d b427 4d3d 0469 87bc
000000b0: d3f7 28be fc4c e33d 3f42 033f eb9c c1be
000000c0: 5f94 793d 0388 13bd 25d6 423e 28b7 c7bd
000000d0: eb83 00bc c366 96bc b5f0 d53d 4404 ffbd
000000e0: fa85 a23e 9c4e 30be 93fa ce3e 911a 89be
000000f0: 7a77 c7bd 5fb7 91be 4d53 793d 6def a5bd
00000100: 52f2 453e 56c5 363e 530e 99bd 8a15 99bc
00000110: 928e 1a3e 680f 4e3d 6d2c 31be 6a7e 06be
00000120: 7082 98bb 3357 75bd be22 a73e d434 f53e
00000130: 3c24 cabe 5b7d 2e3f 292c 1ebe 961f fb3e
00000140: 92c3 cfbd de3e 09bf cdc4 9cbd 04c8 d83e
00000150: 36cd 283e 02e2 6abe aa82 4ebe e3b3 aa3d
00000160: e7d1 963e 0b22 a4be 9072 b33e c928 ca3e
00000170: 50ce 52be 4516 f03e 4107 26be 80b3 ddbc
00000180: 091b a33e 783d 3c3e 62bd 4b3d 80f6 6ebe
00000190: c49d fd3e aa88 9c3d dd5e 84be 31e8 04be
000001a0: e9c1 c9be f88a 8a3e 3621 f53d 1c75 d3bc
000001b0: 66e3 18be da62 d83e 5cd8 723e 25bc 36be
000001c0: f0df b23e 8fa6 71bd 5e02 653e caf6 40bf
000001d0: b7aa af3e af14 07bf bd37 16be da0e 063e
000001e0: f35f e33e 2871 6dbd 8997 713e 89da 2bbc
000001f0: 8d32 cdbe 9776 ef3c 64ff 313f 3a47 483c
00000200: ca0d 99bd c69c d23d 1634 873d a19b a43d
00000210: fd81 2abe 924e 4ebb 9f20 a2be dae2 7abe
00000220: f852 9ebd 5335 f73d 8392 97be 97de 93bd
00000230: e5d6 06be e10c 41be 0cd7 563d f757 0fbe
00000240: 8595 3bbe 1f98 7a3d 66cd b9bd 3a52 aabe
00000250: 8618 a1bc 7979 153d 80c8 0dbd 1a46 203d
00000260: 5348 5cbd 76e0 d83d e058 73be d606 a73c
00000270: cbc7 29be 36d6 2c3e 6b76 1f3e 0a98 45be
00000280: 3a07 6cbd 0d3d febd 066e f33d ebfe eabe
00000290: 48c6 01bd 2bb6 98bc 3520 dbbd 24a4 fa3d
000002a0: e766 f0be 63d0 4f3d f3aa 9ebd 0086 fd3c
000002b0: 258f c13d bfe6 0fbd f59b 5fbc 4b0b 06be
000002c0: 14c7 473e c9d2 99be 1428 b4bd 742e 24be
000002d0: 3613 653e 7b13 88bd 57aa 49bd 4b9c b13c
000002e0: 253a 7bbb 9cb4 323e 7d7f 29bd b110 5a3d
000002f0: 613c 793d f2d2 f1bb c94e 94bd 5fab 393d
00000300: f8e4 12be debf d63b b3b9 053e ade7 b3bd
00000310: 6998 babd 58d5 833b 6d76 3e3d 96cb 763e
00000320: 2d96 d23c c463 36be 0c89 3e3e 84e4 c63c
00000330: 967d 203d deb8 06be 1ab8 fd3d b3ab c3be
00000340: 121f 9b3c 3018 533e 4aa3 2dbe 4d51 90bd
00000350: 410d a8bb 20f7 2dbc e4c4 9c3e 3895 f9bc
00000360: e3e9 ad3d b95a 0cbe 1905 a43d 25f0 d53d
00000370: 7328 093c 3865 943c 2b89 d23e b85f af3d
00000380: 0ed6 893d d9f0 c9be 32f4 87bd 6d41 983d
00000390: 95a3 81bd d4ad 943d 1945 cb3d 88ce 10bd
000003a0: 2b0b 483e 96da 863d ec8b d33c 1f88 6a3e
000003b0: 5f12 1d3e 18db 25bd cf3a 023e b61a f1bd
000003c0: f91b 8bbd 9857 1cbf d987 063c 1e37 723d
000003d0: f443 0d3e 63a1 e63d ce25 0fbe c8c5 483e
000003e0: 1bc2 1a3e abd0 bc3d 402e 533d af97 1e3e
000003f0: bc40 5e3d 4e67 ed3c 25f3 583e 67b4 bf3e
0.34159976 -0.00937958 -0.09908175 -0.24850453 0.13926078 0.09251588 -0.056099124 -0.20640044
0.1863916 0.026934285 -0.21197253 0.042491786 0.21764857 0.30878043 -0.17824696 0.47017035
-0.1957859 0.040889733 0.22905108 0.16161388 -0.21248999 -0.08880438 -0.22551936 -0.19943936
-0.07310625 -0.33604404 0.036968507 0.1818869 0.26680648 0.15333731 0.16193789 -0.09530844
0.2764652 0.3779212 0.014767284 0.10744334 0.3526751 0.47125956 -0.36015016 0.16466792
-0.26473966 0.07627328 0.050086692 -0.016529568 -0.16500787 0.11098668 0.5127296 -0.3781503
0.060932513 -0.036018383 0.19027002 -0.09751731 -0.007843952 -0.018359547 0.10446302 -0.124519855
0.3174284 -0.17217487 0.40425548 -0.2677808 -0.09739585 -0.28460214 0.060870457 -0.081023075
0.19330719 0.17848715 -0.07473435 -0.018687028 0.15093449 0.05030766 -0.17302103 -0.1313416
-0.0046542212 -0.059897613 0.32643694 0.47891867 -0.3948077 0.6816003 -0.15446533 0.49047536
-0.10144724 -0.5361155 -0.07654724 0.423401 0.16484532 -0.22937778 -0.20167032 0.08335092
0.29457018 -0.32057223 0.35048342 0.39484242 -0.20586514 0.4689199 -0.16213705 -0.027063131
0.31856564 0.18382823 0.049741156 -0.2333622 0.49534428 0.07643254 -0.25853625 -0.12979199
-0.39405754 0.2705915 0.11969225 -0.025812678 -0.14930496 0.42262918 0.23715347 -0.17845209
0.34936476 -0.058996733 0.22364184 -0.7537657 0.34309933 -0.52765936 -0.146697 0.13091603
0.4440914 -0.057969242 0.23592962 -0.010489115 -0.4007763 0.029231353 0.6953032 0.012224013
-0.07473333 0.102838084 0.066017315 0.08037496 -0.16651149 -0.0031479937 -0.31665513 -0.245006
-0.07730669 0.12070718 -0.29603967 -0.0722019 -0.13167913 -0.18852569 0.05245118 -0.139984
-0.18318756 0.06118023 -0.0907238 -0.3326586 -0.019665014 0.0364928 -0.03461504 0.039129354
-0.05377991 0.105896875 -0.23764372 0.020389002 -0.16580121 0.1687859 0.15572517 -0.1929628
-0.05762408 -0.12413988 0.1188622 -0.45897612 -0.031683236 -0.018641552 -0.106995024 0.122383386
-0.46953508 0.050735842 -0.0774745 0.030947685 0.09451131 -0.035132166 -0.013648023 -0.13090245
0.19509536 -0.3004363 -0.08796707 -0.16033345 0.2237061 -0.066443406 -0.049234714 0.021680972
-0.0038334217 0.1745171 -0.041381348 0.053238574 0.060848597 -0.007379883 -0.072415896 0.045329448
-0.14345157 0.006553634 0.1305912 -0.08784423 -0.09111101 0.0040232353 0.04649966 0.241011
0.025706375 -0.17811495 0.18606967 0.024278887 0.039182268 -0.13156459 0.1238863 -0.38216934
0.018935714 0.20614696 -0.16956821 -0.07046757 -0.005128533 -0.010618001 0.30618966 -0.03046666
0.08491876 -0.13706483 0.08008785 0.104461946 0.00837146 0.018114671 0.41120276 0.08563179
0.06730281 -0.39441565 -0.066383734 0.07434354 -0.06330029 0.072597176 0.09925289 -0.035353214
0.1953551 0.06584661 0.025823556 0.22903489 0.1533904 -0.040492147 0.12717746 -0.11772673
-0.06792445 -0.6107116 0.0082111 0.059134595 0.13795453 0.11261251 -0.13979265 0.19606698
0.15113108 0.09219488 0.05155778 0.1548755 0.054260954 0.028979924 0.21186502 0.37442324
