models/mic_classifier/layers/WittenAMPRegressor_gru_a/1_weight.npy (npy, 49280 bytes, 1 tensors)

array f4 [64, 192]
0	0xbcc258b0	-0.02372393
1	0xbdce3dfe	-0.10070418
2	0x3d33e24a	0.043916978
3	0x3d9b073e	0.07569741
4	0x3ede3e70	0.4340701
5	0x3cfc0f22	0.030768935
6	0xbcfa877f	-0.030582188
7	0x3d2053cf	0.039142426
8	0x3df4f408	0.11960608
9	0x3c37d227	0.011219538
10	0xbef40564	-0.47660363
11	0x3beef4fc	0.007292388
12	0x3d810492	0.062997
13	0xbded45a3	-0.11585548
14	0xbcfb04b2	-0.030641887
15	0x3dfd636a	0.12372477
16	0x3c837e69	0.016051488
17	0x3c9ed847	0.019390238
18	0xbe1f6351	-0.1556523
19	0xbe6c6d7a	-0.23088637
20	0xbd39d380	-0.045367718
21	0x3dbd30da	0.09237833
22	0xbd432e1e	-0.047651403
23	0xbf0203aa	-0.5078684
24	0x3cc41d92	0.023939881
25	0xbd015335	-0.031573493
26	0x3ca7b5be	0.020472404
27	0xbe224d36	-0.15849766
28	0x3e9be50f	0.30448195
29	0xbd0c2fb1	-0.03422517
30	0x3c5553cc	0.013020467
31	0xbbf2f61d	-0.007414593
32	0x3e477f99	0.19482268
33	0xbd5c230d	-0.053744365
34	0x3da20ca8	0.0791257
35	0x3dcbcb18	0.099508464
36	0xbdca4142	-0.09875728
37	0xbec10140	-0.37696266
38	0x3e2305cf	0.15920185
39	0x3e86accf	0.26303717
40	0x3effa856	0.49933118
41	0x3e2ccb43	0.16874413
42	0xbf069c58	-0.5258231
43	0x3e7f84fa	0.2495307
44	0x3de0a36e	0.10968672
45	0xbc8c4e10	-0.017127067
46	0xbd24c95e	-0.0402311
47	0xbed38013	-0.4130865
48	0x3b045574	0.0020192536
49	0xbc59067a	-0.013246173
50	0xbd908b89	-0.07057864
51	0x3e71e9dd	0.23624368
52	0x3ee53ee3	0.4477454
53	0x3e8d9c2d	0.27658215
54	0xbea0f769	-0.3143876
55	0xbe4f8e1c	-0.20269054
56	0xbc74dd98	-0.01494541
57	0xbd1cc9b4	-0.038278297
58	0x3cd34753	0.025790846
59	0xbdf1d24f	-0.11807691
60	0x3e486f0f	0.19573615
61	0x3db7a083	0.08966162
62	0xbd0791a7	-0.03309789
63	0x3c1ffdc6	0.009765094
64	0x3d4975cc	0.049184605
65	0x3e16ba12	0.14719418
66	0xbd3ace86	-0.045607112
67	0xbc01b6af	-0.00791709
68	0x3be102cf	0.00686679
69	0x3ccb99d9	0.024853634
70	0xbe93e054	-0.28882086
71	0x3c3cbbd9	0.011519396
72	0xbe09766a	-0.13424078
73	0x3d0c2867	0.03421822
74	0x3d552b61	0.052043322
75	0x3c3befdd	0.011470762
76	0xbdf4359d	-0.119242884
77	0x3d4bca29	0.04975334
78	0xbdaadaa0	-0.08342481
79	0x3d0ffd35	0.035153586
80	0x3dae1259	0.08499593
81	0x3d2c157a	0.04201267
82	0xbd68c2d1	-0.056826416
83	0x3df61320	0.120153666
84	0x3d9e7316	0.07736795
85	0xbe3a3ba4	-0.18186814
86	0xbcb1bb27	-0.021695687
87	0xbddbd60f	-0.10734188
88	0xbc7ee582	-0.015557649
89	0xbdcc1a0a	-0.09965904
90	0x3d837753	0.06419244
91	0x3d1be4b1	0.038059894
92	0x3e982c62	0.2972136
93	0xbe219c5e	-0.15782306
94	0x3e0f16d1	0.13973548
95	0x3e4ab8de	0.19797084
96	0xbd4c47c5	-0.049873132
97	0xbdee8c31	-0.11647833
98	0x3cc75e88	0.024337068
99	0xbe4b316b	-0.1984307
100	0x3ddc2677	0.10749524
101	0x3da18eb3	0.07888546
102	0xbe742d87	-0.23845492
103	0x3ca55f3f	0.020187018
104	0xbe83b44c	-0.25723493
105	0xbd17874c	-0.036994264
106	0xbd0e5bac	-0.034755394
107	0x3e4116e2	0.18856385
108	0x3e51acce	0.20476076
109	0x3da8702e	0.082245216
110	0xbe8b1678	-0.2716558
111	0x3cfb1984	0.030651815
112	0xbcbb7671	-0.022883626
113	0xbdd348bd	-0.10316608
114	0x3e760208	0.24024212
115	0xbc79f436	-0.015255978
116	0x3c9c53ec	0.019082986
117	0xbdccbe52	-0.09997238
118	0xbe179eb5	-0.14806636
119	0x3e57f6dd	0.21090265
120	0x3d8a8a3d	0.06764648
121	0x3df22271	0.118229754
122	0x3dd8a5fc	0.10578534
123	0x3e3a36df	0.18184994
124	0x3d6e766c	0.058218405
125	0x3d6fa06b	0.058502596
126	0x3e8da620	0.27665806
127	0x3e05f545	0.13081844
128	0x3c842be9	0.01613422
129	0x3e3358bb	0.17514317
130	0xbb02f7ad	-0.0019984052
131	0x3e012765	0.12612684
132	0xbd004c01	-0.031322483
133	0xbd80f294	-0.06296268
134	0x3a616963	0.00085987727
135	0xbc2bc5e1	-0.01048419
136	0xbdc0591a	-0.09391995
137	0x3d7cda68	0.061731726
138	0x3e564dca	0.20928112
139	0x3d6a0b98	0.057139963
140	0xbe360a24	-0.17777306
141	0xbc20eede	-0.009822575
142	0x3e4348df	0.19070767
143	0xbdec9570	-0.115519404
144	0x3d979d24	0.07403019
145	0xbd300785	-0.04297592
146	0xbd8885c8	-0.06666142
147	0x3daae04a	0.08343561
148	0xbcbda04b	-0.023147723
149	0xbdfe531d	-0.12418196
150	0x3d6b6c88	0.05747655
151	0xbd105b20	-0.035243154
152	0xbde7109f	-0.11282467
153	0xbd52321d	-0.051317323
154	0xbe10ad14	-0.14128524
155	0xbdf7b337	-0.120947294
156	0x3da78e4d	0.081814386
157	0xbd4a70d4	-0.049424008
158	0xbcfb2135	-0.030655483
159	0x3e149d12	0.14513043
160	0xbd8bc77e	-0.068251595
161	0x3e19ccec	0.15019578
162	0x3dc649b7	0.09682029
163	0x3dbc739f	0.092017405
164	0x3ccb8603	0.024844175
165	0x3dea33a0	0.11435628
166	0x3decd3c7	0.11563831
167	0xbe43506a	-0.19073644
168	0x3c09ecb9	0.0084182555
169	0x3e23c0a5	0.15991457
170	0xbd6fddb1	-0.05856103
171	0x3c005c2a	0.007834474
172	0x3e3babee	0.18327305
173	0x3df76cd5	0.12081305
174	0xbdc6e5be	-0.097117886
175	0x3c7b9fb6	0.015357902
176	0x3e8dae29	0.27671936
177	0x3e115c16	0.14195284
178	0x3e11ed8f	0.14250778
179	0xba021982	-0.00049629074
180	0xbd0f3b93	-0.034968924
181	0x3d006011	0.031341616
182	0x3c87ecfb	0.016592493
183	0xbe18f1d7	-0.14936005
184	0x3ce931a1	0.028466048
185	0xbdf8802b	-0.12133821
186	0x3db5ab94	0.088706166
187	0xbd14df31	-0.036345664
188	0x3c82c665	0.015963743
189	0x3c77f8a8	0.015134968
190	0x3e1838d9	0.14865436
191	0xbe00dd05	-0.12584312
192	0xbdca9280	-0.09891224
193	0xbcd9eeef	-0.02660319
194	0x3dd1dbf4	0.10247031
195	0x3d38697e	0.04502248
196	0xbbfe5f63	-0.007762836
197	0x3e29db82	0.16587642
198	0xbd891488	-0.06693369
199	0xbd753c2c	-0.059871837
200	0xbd29992d	-0.041405845
201	0x3dd360fb	0.10321232
202	0xbe6eb5a2	-0.23311475
203	0x3e58943b	0.21150295
204	0xbd2ed4e6	-0.042683505
205	0x3dab64fc	0.083688706
206	0x3dd07f4f	0.10180532
207	0xbdeed369	-0.11661417
208	0x3def95b6	0.11698477
209	0xbe257365	-0.16157301
210	0xbd6c37cf	-0.05767041
211	0x3cc87387	0.02446915
212	0xbe96c6be	-0.29448503
213	0xbd1de239	-0.03854582
214	0xbeeefa83	-0.466755
215	0x3d567e28	0.052366406
216	0xbbb9ef56	-0.005674283
217	0xbe963422	-0.2933665
218	0xbe3e3643	-0.18575387
219	0xbe4c9d87	-0.19981967
220	0x3e4b4db4	0.1985386
221	0xbdfc97c7	-0.12333637
222	0x3e788984	0.24271208
223	0x3dbce3f2	0.092231646
224	0x3e058288	0.13038075
225	0xbdad22fb	-0.084539376
226	0xbe55babf	-0.20872019
227	0x3d869d78	0.065730035
228	0xbe055448	-0.13020432
229	0x3ee011bc	0.4376353
230	0xbd831862	-0.06401135
231	0xbe6b24a1	-0.22963192
232	0x3dda9935	0.10673753
233	0x3dd585d6	0.10425918
234	0xbdf62985	-0.12019638
235	0x3ed27af2	0.41109425
236	0x3b0eacc6	0.0021770461
237	0xbbb5aa45	-0.0055439794
238	0xbe767f3e	-0.24071977
239	0x3d922887	0.07136636
240	0xbd529b59	-0.051417682
241	0xbf214c3b	-0.63006943
242	0xbd187185	-0.037217636
243	0x3d6566f9	0.056006406
244	0x3e969d33	0.29416808
245	0x3e84691f	0.2586145
246	0xbe0362e7	-0.12830697
247	0xbe6516f7	-0.22372042
248	0xbe8c9a6b	-0.27461562
249	0xbe6ad16d	-0.22931452
250	0xbe354c01	-0.17704774
251	0xbd320c8f	-0.043469008
252	0x3dda9874	0.106736094
253	0x3e31fe78	0.17382228
254	0x3d34a5fd	0.04410361
255	0x3e05e9d6	0.13077483
