models/mic_classifier/layers/WittenAMPRegressor_gru_a/2_weight.npy (npy, 896 bytes, 1 tensors)

array f4 [192]
0	0xbda24b5f	-0.07924532
1	0xbe1ee088	-0.1551534
2	0xbd576c08	-0.05259326
3	0xbdd6f825	-0.104965486
4	0x3e15c478	0.14625728
5	0xbe2465a7	-0.16054402
6	0xbe27436c	-0.16334313
7	0x3dd0173b	0.10160681
8	0xbda25463	-0.07926252
9	0xbe078323	-0.13233618
10	0xbe8f8031	-0.2802749
11	0xbdda3e92	-0.106564656
12	0xbeac9775	-0.33709303
13	0xbdc05307	-0.09390836
14	0xbe8ec6bf	-0.27886006
15	0xbe87685e	-0.26446813
16	0xbe6fe4c8	-0.23427117
17	0xbd9b3576	-0.07578556
18	0xbe3bcecc	-0.18340605
19	0xbdca1318	-0.09866923
20	0xbe13be89	-0.14428152
21	0xbdb73367	-0.08945351
22	0x3e214d75	0.15752204
23	0xbe6f1fed	-0.23352022
24	0xbdcb06a7	-0.09913378
25	0xbe8efb7b	-0.2792624
26	0x3ccade72	0.024764273
27	0xbe28e2c0	-0.16492748
28	0xbe5aec8f	-0.21379302
29	0xbd9557aa	-0.07292111
30	0xbde63a56	-0.112415954
31	0x3dd04ba5	0.10170678
32	0xbe610da9	-0.21977867
33	0x3d4f767e	0.050650112
34	0x3d42eb80	0.04758787
35	0xbde7d615	-0.1132013
36	0xbcd37aac	-0.02581533
37	0xbc121c12	-0.008917825
38	0x3e54fe21	0.20800067
39	0xbe048ed6	-0.12945113
40	0xbe628c10	-0.22123742
41	0x3b862dcf	0.0040948163
42	0xbdbcff8a	-0.09228428
43	0xbe35db2f	-0.17759393
44	0xbde656c9	-0.11247022
45	0xbe53f5a4	-0.20699173
46	0xbe15b1a4	-0.14618546
47	0xbe975777	-0.29558918
48	0xbebf3fda	-0.37353402
49	0xbe1ec78c	-0.15505809
50	0xbe06c80d	-0.13162251
51	0xbe39b675	-0.18136008
52	0xbe345d57	-0.17613731
53	0xbe5496ea	-0.20760694
54	0xbe3df999	-0.18552245
55	0xbdebaf5b	-0.11508056
56	0xbe8e3126	-0.27771872
57	0xbe6f3f4e	-0.23363993
58	0xbdc94714	-0.0982801
59	0xbd550e8a	-0.05201582
60	0xbe4c03cb	-0.19923322
61	0xbca872da	-0.020562578
62	0xbe9466eb	-0.2898477
63	0xbd382d3e	-0.04496502
64	0xbd9d4ff8	-0.076812685
65	0xbb4b7efd	-0.0031051033
66	0xbc96f0c8	-0.01842536
67	0xbaabc3c6	-0.001310461
68	0xbd787aec	-0.060664102
69	0xbde9e696	-0.11420934
70	0x3ddcc601	0.10779954
71	0xbd799fe6	-0.060943507
72	0xbbe14d93	-0.0068757026
73	0xbded90c7	-0.1159988
74	0xbc34e0b2	-0.0110399
75	0xbd854849	-0.06507928
76	0xbde0cf2b	-0.10977014
77	0x3d125fc1	0.03573585
78	0x3d721898	0.059105486
79	0x3b34bb70	0.0027577542
80	0xbc747dd5	-0.014922579
81	0xbe3a86b3	-0.18215446
82	0x3df375e3	0.118877195
83	0xbde79fc4	-0.1130977
84	0xbc974212	-0.018464122
85	0xbd46619d	-0.048432935
86	0xbd026a86	-0.03183987
87	0x3d49717b	0.04918049
88	0xbce4964e	-0.027903702
89	0x3e4e170d	0.2012598
90	0xbd362816	-0.044471823
91	0x3da97fc3	0.08276322
92	0xbca9fc2c	-0.020750128
93	0x3b13dc2e	0.0022561657
94	0x3b4ec80d	0.0031552345
95	0xbdc6684a	-0.0968786
96	0xbd017322	-0.03160394
97	0xbda365c8	-0.079783976
98	0xbe89537d	-0.2682151
99	0x3c662765	0.014047478
100	0xbc1e9e8f	-0.009681358
101	0x3cfcf5ff	0.030879019
102	0x3d8861ba	0.06659265
103	0x3bd9e8ef	0.0066500823
104	0xbbcca924	-0.006245749
105	0x3c522337	0.012825779
106	0x3d16d5a5	0.03682484
107	0xbe4f5c38	-0.20250022
108	0x3c49fc51	0.012328223
109	0x3bc5c87b	0.006035862
110	0xbbf645c2	-0.00751564
111	0x3d744498	0.05963573
112	0x3d08c8bb	0.033394556
113	0xbdd07ee9	-0.10180456
114	0xba6a8f5e	-0.0008947755
115	0xbda0e00d	-0.07855234
116	0x3dd2a88a	0.102860525
117	0xbd8e8066	-0.06958084
118	0xbd63b1f0	-0.055589616
119	0x3d763b2f	0.060115036
120	0x3d5d3244	0.054003015
121	0xbd22e1fb	-0.039766293
122	0xbe55de38	-0.20885551
123	0x3d5d1ea3	0.053984296
124	0xbd29d04d	-0.041458417
125	0xbe7896e9	-0.24276318
126	0xbdc84f22	-0.097807184
127	0xbe593af6	-0.21213898
128	0xbc10d30b	-0.008839379
129	0xbcfca5ec	-0.030840836
130	0xbc4f6048	-0.012657233
131	0xbcd18598	-0.025576398
132	0xbc0f135e	-0.008732645
133	0xbd36a713	-0.04459293
134	0xbc9f6274	-0.019456126
135	0xbd2967ad	-0.04135864
136	0xbc70dbcd	-0.014700842
137	0xbba77f98	-0.005111646
138	0xbd7c05be	-0.061528914
139	0xbd1c3c8e	-0.038143687
140	0xbd10ce3a	-0.035352923
141	0xbd27fd66	-0.041013144
142	0xbda429f7	-0.08015817
143	0xbd08328c	-0.03325133
144	0xbcdec851	-0.027195128
145	0xbbb69e94	-0.005573103
146	0x3a7d8b66	0.0009671956
147	0xbd1e1946	-0.03859832
148	0xbd183a26	-0.03716483
149	0xbd4ad585	-0.049520034
150	0xbd5afb70	-0.053462446
151	0xbbba0bad	-0.0056776614
152	0xbc245b29	-0.0100315
153	0xbca2976e	-0.019847598
154	0xbc756b97	-0.014979265
155	0xbd6691ed	-0.05629151
156	0xbcc38225	-0.023865769
157	0xbd934d52	-0.07192482
158	0xbcf77596	-0.030207437
159	0xbd5e4ad1	-0.05427057
160	0xbc278ff3	-0.010227191
161	0xbd0a49b3	-0.03376169
162	0x3b92ee7d	0.0044839964
163	0xbc2c71f2	-0.010525214
164	0xbcb7d4ea	-0.022440393
165	0xbcb81382	-0.02247024
166	0xbc5eb388	-0.013592608
167	0xbd7ea9fa	-0.06217382
168	0xbc6c5220	-0.014423877
169	0xbd6688c1	-0.056282762
170	0xbbe82d73	-0.007085496
171	0xbd140b71	-0.036143724
172	0xbd8672a2	-0.06564833
173	0xbc5ffef7	-0.013671628
174	0xbbb068dc	-0.005383594
175	0xbd94dfa6	-0.0726922
176	0xbdbfeeea	-0.09371741
177	0x3cd0dd3b	0.025496116
178	0x3b5a0297	0.0033265704
179	0xbd4a4005	-0.04937746
180	0xbd05b487	-0.032642867
181	0xbc12c471	-0.008957968
182	0xbcb0e427	-0.021593167
183	0x3ba94e61	0.005166814
184	0xbd14c52b	-0.036320847
185	0xbd5e3252	-0.054247208
186	0xbdb032ba	-0.08603425
187	0xbd27c87d	-0.040962685
188	0xbba32a5e	-0.004979416
189	0xbd0f8ee4	-0.03504838
190	0xbd178e31	-0.03700084
191	0xbd454cc6	-0.04816892
