models/mic_classifier/layers/WittenAMPRegressor_gru_a/3_weight.npy (npy, 98432 bytes, 1 tensors)

array f4 [128, 192]
0	0xbd45d3b1	-0.048297588
1	0xbd7e5292	-0.062090464
2	0x3d46087e	0.048347943
3	0xbe314b10	-0.1731379
4	0x3e100270	0.1406343
5	0xbe25e726	-0.16201457
6	0x3d7716ec	0.060324594
7	0xbcb22ed3	-0.021750843
8	0xbe5b1fb3	-0.21398811
9	0xbc784cad	-0.015155
10	0xbe41c783	-0.18923764
11	0xbdfe8e29	-0.12429459
12	0x3d825c50	0.063652635
13	0xbc64d298	-0.013966225
14	0xbe9d8636	-0.30766457
15	0xbdc02af3	-0.09383192
16	0xbe802eb5	-0.25035635
17	0x3c84f380	0.016229391
18	0xbe8a8282	-0.27052695
19	0xbdeee0d0	-0.11663973
20	0xbe2584d4	-0.16163951
21	0xbe5a41a6	-0.21314105
22	0xbde74775	-0.11292926
23	0xbd1741ff	-0.036928173
24	0xbe114c7b	-0.14189331
25	0xbd89fe5f	-0.067379706
26	0x3ed3fdb3	0.41404495
27	0xbdcaa469	-0.0989464
28	0xbe8c06d8	-0.2734897
29	0x3d9431e5	0.07236079
30	0x3dcd2afe	0.10017966
31	0xbe3a6236	-0.18201527
32	0x3d863c3c	0.065544575
33	0xbeb8a0ee	-0.3606028
34	0x3d001a15	0.031274874
35	0xbd47598f	-0.048669394
36	0x3ded46ee	0.115857944
37	0x3e340fa8	0.17584097
38	0xbeabb84e	-0.3353905
39	0xbe9f1e7e	-0.3107795
40	0xbe1dcb58	-0.154096
41	0x3daafef7	0.08349412
42	0xbdcdcdef	-0.10049044
43	0x3dcb4bad	0.099265434
44	0xbdd5725e	-0.104222044
45	0xbe954fd5	-0.2916247
46	0xbe15c264	-0.14624935
47	0xbe1136cf	-0.14181064
48	0xbe5b2ed4	-0.21404582
49	0xbea71cfb	-0.32639298
50	0xbd1259f8	-0.035730332
51	0xbed88a41	-0.4229298
52	0x3e0d05b8	0.13771713
53	0x3d9f4445	0.07776693
54	0xbe00caa9	-0.12577309
55	0x3f1bdd81	0.60884863
56	0xbe052745	-0.13003261
57	0xbe5759b5	-0.21030314
58	0xbed67c80	-0.4189186
59	0xbdc08612	-0.09400572
60	0xbe8343eb	-0.25637755
61	0xbea0eb64	-0.3142959
62	0xbda664fd	-0.08124731
63	0xbe8a4b11	-0.27010396
64	0xbf100ec1	-0.5627251
65	0xbe3a064f	-0.18166469
66	0xbd4fa5e6	-0.050695322
67	0xbd860e3f	-0.06545686
68	0xbe9d70f2	-0.30750233
69	0xbe915f3c	-0.2839297
70	0xbe5d323b	-0.21601193
71	0xbed244a3	-0.4106799
72	0xbe84dc4e	-0.2594933
73	0xbe918a4e	-0.2842583
74	0xbc1c5aa8	-0.0095430985
75	0x3ec3b486	0.38223666
76	0xbe57434f	-0.2102177
77	0x3d86f7f2	0.065902606
78	0x3e01ace8	0.12663615
79	0xbef50aa4	-0.4785968
80	0xbd0fe083	-0.03512622
81	0xbf41a064	-0.7563536
82	0xbe95a2fc	-0.2922591
83	0x3e777d3e	0.2416887
84	0xbdbc14cb	-0.091836534
85	0xbb6a475e	-0.0035748105
86	0xbe7a76af	-0.24459337
87	0xbe20f2c7	-0.15717612
88	0xbe96c672	-0.29448277
89	0xbe5d8123	-0.21631293
90	0xbba050b1	-0.0048924317
91	0xbdfef4bf	-0.12449025
92	0xbf03fbb7	-0.5155596
93	0xbd858954	-0.06520334
94	0x3e2c954c	0.16853827
95	0xbeed1025	-0.4630138
96	0xbe9634e6	-0.29337233
97	0x3e9786e7	0.2959511
98	0xbe141e25	-0.14464624
99	0xbeb514ed	-0.35367528
100	0xbe4afa8a	-0.19822136
101	0x3c44db51	0.01201518
102	0xbe22513c	-0.15851301
103	0xbe89890f	-0.2686238
104	0xbe51b5f0	-0.2047956
105	0xbebaf84b	-0.36517558
106	0xbd840486	-0.06446175
107	0x3e7775b6	0.24165997
108	0xbf070a5c	-0.5275018
109	0x3d84fcd9	0.06493539
110	0xbde0fb79	-0.109854646
111	0xbb27b0be	-0.0025587524
112	0x3e92cea5	0.28673282
113	0xbdf75350	-0.120764375
114	0xbe67ba98	-0.22629774
115	0xbe5150ba	-0.20440951
116	0xbf2cc09f	-0.67481416
117	0xbe86f583	-0.26359186
118	0xbd4edf17	-0.050505724
119	0xbe2b1035	-0.16705401
120	0xbe130069	-0.14355625
121	0xbe20e117	-0.15710865
122	0xbf22b25e	-0.63553417
123	0xbeae8c64	-0.34091485
124	0xbef69195	-0.48157945
125	0xbe80bb17	-0.25142738
126	0xbe954ca8	-0.29160047
127	0xbe969f6b	-0.294185
128	0xbdef01a8	-0.11670238
129	0x3e112384	0.14173704
130	0xbe7e952b	-0.2486159
131	0x3c04dad6	0.008108815
132	0x3d145f50	0.03622371
133	0xbdd538c2	-0.10411216
134	0xbe073275	-0.13202842
135	0xbc5ae01b	-0.013359095
136	0xbde16cb3	-0.11007061
137	0x3c1ff996	0.009764096
138	0x3e4dcd93	0.20097952
139	0xbe95ed4b	-0.29282603
140	0x3dfa0c67	0.12209397
141	0x3dcef777	0.10105794
142	0x3d1155ce	0.03548222
143	0x3d3e6c84	0.046490207
144	0x3d2e7c62	0.04259909
145	0xbe10d491	-0.14143588
146	0x3cf8d6ca	0.030375857
147	0x3dc5fc98	0.09667319
148	0x3d427e50	0.047483742
149	0x3dd44f6e	0.103667125
150	0xbd1da0e7	-0.038483527
151	0x3df881ee	0.12134157
152	0xbdd67b07	-0.10472684
153	0x3d94b94e	0.072619066
154	0xbe194aba	-0.14969912
155	0xbe351e61	-0.1768737
156	0xbe0f643d	-0.14003082
157	0xbcad4aca	-0.021153826
158	0xbc37bb3a	-0.011214072
159	0x3dfe9a7d	0.1243181
160	0xbe86d4bd	-0.2633418
161	0x3b00801d	0.0019607611
162	0x3e3ade60	0.18248892
163	0x3dc3f8e0	0.095689535
164	0xbe0bca39	-0.1365136
165	0xbca9a793	-0.020709788
166	0xbdec3125	-0.11532811
167	0x3b45a57e	0.0030158455
168	0x3d65bcea	0.056088366
169	0xbd62b53b	-0.055348616
170	0xbd641fa8	-0.055694252
171	0x3c6469bf	0.013941227
172	0x3dc6ee76	0.097134516
173	0xbea834e3	-0.3285285
174	0xbdcc21e5	-0.09967402
175	0xbde5589e	-0.11198543
176	0x3e37ede9	0.1796185
177	0x3e5137f4	0.204315
178	0xbd9bc4de	-0.07605909
179	0x3d92e0d6	0.0717179
180	0xbda0880b	-0.07838448
181	0xbdf22f4c	-0.118254274
182	0x3d34c5fa	0.044134118
183	0xbeb091fb	-0.34486374
184	0xbc611ccf	-0.013739779
185	0xbc8e8143	-0.017395621
186	0xbd8f3873	-0.06993189
187	0xbdd06f5a	-0.101774886
188	0xbe2a1465	-0.16609342
189	0x3e5157b5	0.20443614
190	0x3d785895	0.060631353
191	0x3e0ca6e6	0.13735542
192	0xbc802f46	-0.015647542
193	0x3e144b50	0.14481854
194	0xbd79e5a1	-0.061010007
195	0x3dc132b5	0.094335
196	0x3e666a00	0.22501373
197	0x3d5d389a	0.054009058
198	0xbc99978a	-0.018749017
199	0x3d71b875	0.059013803
200	0x3e8b064e	0.27153248
201	0x3dd8e5e4	0.10590723
202	0x3d944e17	0.07241457
203	0x3ca77c0e	0.020444896
204	0x3d800f7c	0.062529534
205	0x3d906453	0.07050385
206	0x3c874084	0.016510256
207	0x3e8caa5c	0.27473724
208	0x3e469fc9	0.1939689
209	0x3acac6a7	0.001547058
210	0xbd14bd74	-0.03631349
211	0xbdf2c2d7	-0.11853569
212	0x3de485b0	0.11158311
213	0x3dfc2880	0.12312412
214	0x3c539896	0.012914797
215	0x3e5b8ecd	0.21441193
216	0x3d458b26	0.048228405
217	0x3db27e9a	0.087155536
218	0xbe758c2a	-0.2397925
219	0x3da3c170	0.0799588
220	0x3d051462	0.03249014
221	0x3cbff106	0.023430359
222	0x3e08b948	0.13351929
223	0x3d393e33	0.045225333
224	0xbdc1b987	-0.09459215
225	0x3db8d336	0.0902466
226	0x3d92317d	0.071383454
227	0xbbc11ff9	-0.005893704
228	0xbe15c0c4	-0.14624316
229	0x3e2d52c5	0.16926105
230	0x3d669908	0.056298286
231	0x3b1734e7	0.0023072304
232	0x38c8278c	9.544109e-05
233	0xbe750771	-0.2392862
234	0xbe291fe1	-0.16516067
235	0xbde45e08	-0.111507475
236	0x3e290058	0.16504037
237	0x3e8cb874	0.27484477
238	0x3d8945d6	0.06702773
239	0x3e0087b2	0.12551764
240	0x3e1a5ad0	0.15073705
241	0x3dd5033a	0.10401006
242	0xbc0a0cf1	-0.008425937
243	0x3d9554f5	0.07291595
244	0x3dfac1ff	0.12244033
245	0xbd90976d	-0.07060132
246	0xbe1a6b95	-0.15080102
247	0x3dfe6a2b	0.12422594
248	0x3d9dd052	0.077057496
249	0x3d47da46	0.048792146
250	0x3d992021	0.07476831
251	0xbdadb590	-0.08481896
252	0xbd9b26cc	-0.07575759
253	0xbd2d7a40	-0.042352915
254	0x3e856344	0.26052296
255	0x3eb773b6	0.35830468
