models/mic_classifier/layers/WittenAMPRegressor_gru_a/4_weight.npy (npy, 49280 bytes, 1 tensors)

array f4 [64, 192]
0.20404132 0.21872659 -0.006096456 -0.18401556 -0.0037769605 0.07919961 0.06720275 -0.074837014
0.148074 0.17983852 -0.098680645 -0.12427189 0.04000521 0.14260916 -0.13588317 0.23569645
-0.060194273 -0.27274504 -0.10458173 -0.16463087 -0.057520583 0.21630387 0.34692678 0.180328
0.08438239 0.16114889 -0.12947638 0.27607077 0.11342861 0.3590352 0.16659707 0.04334811
0.31434426 -0.10167226 0.11931514 0.14279445 0.29730746 -0.11966898 -0.09618031 0.049139142
0.12803157 -0.088100635 -0.014994192 0.13855034 -0.015910339 -0.13115618 -0.07393617 -0.05641327
0.2051415 0.11290949 -0.16283552 0.02339314 0.15408526 -0.23727795 -0.12959412 -0.35883605
-0.030281927 0.050628785 -0.16217464 0.10295252 0.1639137 0.17876506 0.034946613 0.065281935
-0.028918492 -0.10389148 -0.17515494 0.053752583 0.038755625 -0.122071 0.05689418 -0.15248917
-0.033513453 -0.04836199 -0.022608342 -0.13591975 0.08157086 -0.048471067 0.16105106 0.09598937
-0.05688898 0.09414227 0.00903836 0.076905034 -0.103662066 -0.09022483 0.14516781 -0.19905825
-0.05884226 0.008762925 -0.2533877 0.10195049 -0.046071045 -0.08386957 -0.043318182 -0.08472677
-0.13405189 0.2830281 0.12432342 0.110786565 0.102926195 -0.14853846 0.2016158 -0.19047958
-0.19509424 -0.099389926 -0.021961719 0.112166464 -0.07910165 0.003043876 0.011900889 -0.09297705
-0.041954007 0.14595854 -0.23145793 -0.05784139 -0.073965035 0.21192509 -0.3236626 0.19705409
-0.08434661 0.038135383 -0.39130226 0.0023662183 -0.37662697 -0.10310434 -0.05187576 0.2581327
0.16814324 -0.02634948 0.11062007 0.08508367 -0.09072511 0.017211363 0.20221305 -0.14602396
-0.04302072 0.15588246 0.13602197 0.1493235 -0.01723699 0.118424445 -0.10810902 0.07701642
0.017042628 0.04011341 0.24907637 -0.20119835 -0.0746429 0.036369566 -0.11234015 -0.041173596
0.053497273 -0.2018418 0.26559788 0.00894672 -0.073746935 0.009978399 -0.024482789 -0.12942122
0.0790462 -0.0032549682 -0.1654936 -0.012021779 0.09859186 0.08096154 0.2870978 -0.036580846
-0.10477636 0.052584037 0.15582928 -0.024176303 -0.18408397 0.0366026 0.25267005 -0.054144494
0.019807953 -0.06967262 -0.0075959554 -0.0012480546 -0.026423115 0.14423668 0.0616505 0.07194485
0.039177425 -0.0223431 -0.12437071 -0.021010268 -0.13389875 -0.012191746 -0.0840444 0.097690724
0.14887103 0.22548056 0.2557343 -0.045084044 -0.04487274 -0.08544269 -0.19183394 -0.21055986
0.14367092 0.19111958 -0.039807674 0.14235987 0.04436833 0.09074529 -0.034174174 -0.033226527
-0.054985147 -0.3721045 -0.037667874 -0.09679831 -0.058620982 -0.0023611183 0.17761274 0.18919165
0.06778481 0.020604363 -0.13012433 0.009446922 0.41292527 0.129219 0.17423892 -0.22891688
0.20350611 -0.15645312 -0.20889868 0.049479797 0.12690286 0.172929 0.16508257 -0.022724528
0.2327838 0.23807484 0.1132536 0.284451 0.36240187 0.01347459 -0.051512837 -0.033060215
0.095892124 -0.051036604 0.13105349 0.034550443 -0.03624031 -0.22711527 -0.03630216 -0.44915745
0.10867643 0.185424 0.072856344 0.16240206 0.10766867 0.015933648 -0.11493838 0.12941709
00000000: 35f0 503e ddf9 5f3e c8c4 c7bb 936e 3cbe
00000010: e286 77bb 6833 a23d 98a1 893d 2644 99bd
00000020: b6a0 173e 9727 383e 1419 cabd 4382 febd
00000030: 81dc 233d 2308 123e f524 0bbe 695a 713e
00000040: 458e 76bd 3da5 8bbe f22e d6bd ff94 28be
00000050: b49a 6bbd c37e 5d3e 63a0 b13e e7a7 383e
00000060: add0 ac3d 3704 253e 7595 04be 2659 8d3e
00000070: 424d e83d 76d3 b73e 6c98 2a3e ca8d 313d
00000080: bbf1 a03e 8c39 d0bd 7f5b f43d b538 123e
00000090: af38 983e 0315 f5bd 2ffa c4bd 2046 493d
000000a0: b51a 033e 1b6e b4bd 33aa 75bc 24e0 0d3e
000000b0: 6656 82bc ce4d 06be d96b 97bd 9a11 67bd
000000c0: 9d10 523e 173d e73d 5bbe 26be f8a2 bf3c
000000d0: 87c8 1d3e fef8 72be 52b4 04be 5cb9 b7be
000000e0: ce11 f8bc 2160 4f3d 1c11 26be c5d8 d23d
000000f0: fed8 273e 300e 373e 2e24 0f3d 89b2 853d
00000100: 79e6 ecbc 0ec5 d4bd d15b 33be ab2b 5c3d
00000110: 38be 1e3d 5c00 fabd df09 693d 1f26 1cbe
00000120: 6745 09bd 3917 46bd 2135 b9bc 8c2e 0bbe
00000130: a00e a73d 9989 46bd 92ea 243e 1396 c43d
00000140: 6b04 69bd aacd c03d a115 143c 6380 9d3d
00000150: c74c d4bd ccc7 b8bd dfa6 143e edd5 4bbe
00000160: 9504 71bd 5f92 0f3c 08bc 81be 6bcb d03d
00000170: feb4 3cbd cfc3 abbd 686e 31bd 3b85 adbd
00000180: e644 09be 0fe9 903e 479d fe3d 11e4 e23d
00000190: f8ca d23d 771a 18be 5f74 4e3e 140d 43be
000001a0: c9c6 47be f28c cbbd 10e9 b3bc 88b7 e53d
000001b0: 0c00 a2bd c47b 473b f2fb 423c c06a bebd
000001c0: f7d7 2bbd 2876 153e 4f03 6dbe 18eb 6cbd
000001d0: fb7a 97bd e402 593e 1bb7 a5be 8cc8 493e
000001e0: eabd acbd d933 1c3d c558 c8be 8e12 1b3b
000001f0: 40d5 c0be 5e28 d3bd ad7b 54bd f829 843e
00000200: be2d 2c3e ddda d7bc c68c e23d 5940 ae3d
00000210: 16ce b9bd d8fe 8c3c f010 4f3e 4e87 15be
00000220: 7f36 30bd a79f 1f3e 5849 0b3e 42e8 183e
00000230: 9734 8dbc 8488 f23d 4368 ddbd c9ba 9d3d
00000240: fb9c 8b3c f64d 243d e00d 7f3e f106 4ebe
00000250: 60de 98bd 41f8 143d 9812 e6bd a5a5 28bd
00000260: f51f 5b3d 9eaf 4ebe 72fc 873e 4395 123c
00000270: a208 97bd 707c 233c 2190 c8bc ff86 04be
00000280: f9e2 a13d 4e51 55bb 2777 29be fff6 44bc
00000290: 87ea c93d 2acf a53d 7cfe 923e ccd5 15bd
000002a0: fd94 d6bd 5c62 573d b691 1f3e 620d c6bc
000002b0: 8280 3cbe 9cec 153d f85d 813e 9ec6 5dbd
000002c0: 4a44 a23c 85b0 8ebd 7ee7 f8bb c395 a3ba
000002d0: 4a75 d8bc c8b2 133e 3c85 7c3d d257 933d
000002e0: 8278 203d e008 b7bc 12b6 febd ba1d acbc
000002f0: c11c 09be e4bf 47bc 781f acbd 1312 c83d
00000300: a671 183e 60e4 663e 9bef 823e 0caa 38bd
00000310: 7acc 37bd 94fc aebd 1e70 44be 019d 57be
00000320: 781e 133e dab4 433e 5f0d 23bd c9c6 113e
00000330: 91bb 353d abd8 b93d 38fa 0bbd 8a18 08bd
00000340: 1b38 61bd 7b84 bebe a149 1abd 313e c6bd
00000350: 8e1c 70bd febc 1abb 1de0 353e 75bb 413e
00000360: c3d2 8a3d 7bca a83c 503f 05be 43c7 1a3c
00000370: f16a d33e fc51 043e b06b 323e 3069 6abe
00000380: e863 503e 3f35 20be 89e9 55be 54ab 4a3d
00000390: d3f2 013e 4d14 313e 680b 293e ca28 babc
000003a0: e05e 6e3e e4c9 733e 81f1 e73d 90a3 913e
000003b0: bd8c b93e 87c4 5c3c 20ff 52bd 266a 07bd
000003c0: 1763 c43d c20b 51bd e332 063e c484 0d3d
000003d0: b870 14bd e890 68be 93b1 14bd f7f7 e5be
000003e0: c091 de3d cadf 3d3e b535 953d ba4c 263e
000003f0: 6481 dc3d 4887 823c d064 ebbd ea85 043e
