models/mic_classifier/layers/WittenAMPRegressor_gru_a/5_weight.npy (npy, 896 bytes, 1 tensors)

array f4 [192]
0	0x3dfec320	0.12439561
1	0xbce76903	-0.028248316
2	0xbe831358	-0.25600696
3	0x3dce9950	0.10087836
4	0x3c4b6eb9	0.012416535
5	0x3e4e7dbf	0.20165156
6	0x3deed1dd	0.11661122
7	0xbc2e9af0	-0.010657057
8	0xbe8f1f1d	-0.27953425
9	0x3d34ebde	0.044170253
10	0x3e0d14e7	0.13777505
11	0xbdde19e1	-0.1084478
12	0xbdcbecce	-0.09957276
13	0x3e14898a	0.14505592
14	0xbe76f5d7	-0.24117218
15	0x3e27ce14	0.16387206
16	0x3d79b3cf	0.060962494
17	0xbf12ddde	-0.5736979
18	0x3e018ae1	0.12650634
19	0xbe393814	-0.18087798
20	0x3dab0b05	0.08351711
21	0x3e123ec6	0.14281759
22	0xbe257f35	-0.16161807
23	0x3e4fccc4	0.20292956
24	0x3e116e8f	0.14202331
25	0x3d3b8ca1	0.04578841
26	0xbe490c9d	-0.19633718
27	0x3d930a9b	0.07179757
28	0x3e6a7ada	0.22898427
29	0xbc2e1fbc	-0.010627683
30	0xbd93b9e4	-0.0721319
31	0xbe5e8767	-0.2173134
32	0x3dfc9fd0	0.12335169
33	0xbe3cd3e0	-0.18440199
34	0xbe085d36	-0.13316807
35	0x3e899788	0.26873422
36	0x3d09db8a	0.033656634
37	0xbe1a99ef	-0.15097784
38	0xbdebb2b7	-0.115086965
39	0x3db9dea4	0.090756685
40	0x3deaa358	0.114569366
41	0xbe8ad51a	-0.2711571
42	0xbe42011e	-0.18945739
43	0xbcaf73f1	-0.02141759
44	0xbdb1afb8	-0.08676094
45	0xbe7afacf	-0.24509738
46	0xbe1cca98	-0.15311658
47	0x3e574a3d	0.21024413
48	0x3c2746a3	0.010209712
49	0x3dbcf5ce	0.09226571
50	0x3cd655d5	0.026163975
51	0x3dfa402a	0.122192696
52	0xbccb5042	-0.024818543
53	0xbe840c49	-0.25790623
54	0xbd9a1f0e	-0.075254545
55	0xbea86136	-0.32886666
56	0x3e1d2436	0.15345845
57	0x3e064d7f	0.131155
58	0xbe42b2c0	-0.190135
59	0x3d62e4b4	0.05539389
60	0xbe4ba918	-0.19888723
61	0x3df59405	0.11991123
62	0x3e45e62f	0.1932609
63	0x3d5aa0e2	0.053376086
64	0xbe1059bb	-0.1409673
65	0xbd93dc82	-0.07219793
66	0xbd6cf89b	-0.057854276
67	0xbd7aff6b	-0.06127874
68	0xbcfafd06	-0.03063823
69	0xbe2630ba	-0.16229525
70	0xbda4ac85	-0.08040718
71	0xbbc98db7	-0.006150927
72	0x3d38d338	0.04512331
73	0xbcea0f3a	-0.028571714
74	0xbcde7f69	-0.027160363
75	0x3dc02122	0.093813196
76	0xbcfa5b77	-0.030561192
77	0xbdc0b0b7	-0.09408706
78	0x3c4a317f	0.012340902
79	0x3b0f84d3	0.0021899238
80	0xbceee5be	-0.029162284
81	0x3e17c30d	0.148205
82	0xbd9f6ab2	-0.077840224
83	0x3d209762	0.03920687
84	0xbda7bfcd	-0.0819088
85	0xbdc8fd40	-0.098139286
86	0xbdda224b	-0.10651072
87	0xbd92d767	-0.07169991
88	0xbd67db03	-0.05660535
89	0xbd875e4d	-0.06609783
90	0x3d599bb1	0.053126995
91	0xbd185d69	-0.037198458
92	0x3c4f2ab1	0.012644456
93	0xbd68e064	-0.05685462
94	0xbd1ed213	-0.03877456
95	0xbd0012bf	-0.031267878
96	0xbd129e9a	-0.035795785
97	0xbc34a266	-0.011025047
98	0x3cd20b35	0.02564011
99	0xbdac3781	-0.08409024
100	0xbe41e22a	-0.18933931
101	0xbc726d7b	-0.01479661
102	0x3d2b5487	0.04182866
103	0xbdca28f9	-0.09871096
104	0xbce81582	-0.028330568
105	0xbe0c4388	-0.13697636
106	0xbb03065a	-0.00199928
107	0xbe166e7c	-0.14690584
108	0xbc1bcfa2	-0.009509953
109	0x3d1d3b20	0.038386464
110	0x3d628fe9	0.055313025
111	0xbd3a8b8f	-0.04554325
112	0xbe271372	-0.16316012
113	0x3d5a6bc5	0.053325433
114	0xbd12adc0	-0.035810232
115	0xbd4c6953	-0.049905133
116	0xbd33b08c	-0.04386954
117	0x3d210909	0.039315257
118	0xbb9cb1c9	-0.004781936
119	0x3e5023fa	0.20326224
120	0xb932cd33	-0.00017051845
121	0xbd8c619a	-0.068545535
122	0xbe21ba74	-0.15793782
123	0xbe114e51	-0.14190032
124	0xbb114e6b	-0.0022171985
125	0xbd122742	-0.03568197
126	0xbdda45e3	-0.10657861
127	0xbdb12c78	-0.0865106
128	0x3c1ab72e	0.0094430875
129	0xbb0cc04a	-0.0021476918
130	0xbaab96aa	-0.0013091166
131	0xbcff2ab3	-0.03114829
132	0x3b4f2e6a	0.0031613358
133	0x3bd6b2b1	0.0065520634
134	0x3b35f169	0.00277623
135	0x3a017c3f	0.00049394736
136	0xbde9cf8d	-0.1141654
137	0x3b6c2a0a	0.00360358
138	0xbc021efb	-0.007941957
139	0xbb58e389	-0.0033094606
140	0xbc7d0691	-0.01544346
141	0x3c5a1a4a	0.013311932
142	0xbc52fd4b	-0.012877773
143	0xbcb92c63	-0.022604173
144	0xbca80efe	-0.020514961
145	0xbc93adb1	-0.018027158
146	0xbc87d3d6	-0.016580503
147	0xbbbd3be3	-0.0057749613
148	0xbc3dc07a	-0.0115815345
149	0x3bba191a	0.005679262
150	0xbd31be28	-0.043394238
151	0xbc81e10c	-0.015854381
152	0xbcdb7a7b	-0.026791802
153	0xbc9308df	-0.017948566
154	0xbca66a19	-0.020314263
155	0x3c3d336d	0.011547905
156	0xbcb39bd2	-0.021924887
157	0xbc757cad	-0.014983338
158	0xbbd90c0b	-0.00662375
159	0xbd3bc339	-0.045840476
160	0x3cf2e208	0.029648796
161	0xbd227dd9	-0.0396708
162	0x3d38a127	0.04507556
163	0xbc4af709	-0.012387999
164	0x3cd8b1af	0.026451914
165	0xbd1df2fc	-0.038561806
166	0xbc95bdc8	-0.018278971
167	0xbb2a428b	-0.0025979604
168	0xbbcc0e0d	-0.006227261
169	0x3c216255	0.009850104
170	0xbbd50413	-0.00650073
171	0xbcd6c3b8	-0.026216373
172	0xbca268fd	-0.019825453
173	0x3d91a39f	0.07111286
174	0x3d2bc847	0.041939046
175	0xbc97aff5	-0.01851652
176	0xbd0b9118	-0.03407392
177	0xbc11cb2d	-0.008898539
178	0xbc3dcc32	-0.0115843285
179	0xbc125698	-0.008931778
180	0xbba188cd	-0.004929638
181	0xbc533629	-0.012891331
182	0xbd1a1543	-0.037617933
183	0xbd62b44c	-0.055347726
184	0xbcac1e20	-0.021010458
185	0xbc39f6ed	-0.011350376
186	0xbdab6900	-0.083696365
187	0x3be97806	0.0071249036
188	0x3b94a1c9	0.004535888
189	0xbc8b9492	-0.017038617
190	0xbced4e7d	-0.02896809
191	0xbdc8bf9d	-0.09802172
