models/mic_classifier/layers/WittenAMPRegressor_embedding/0_weight.npy (npy, 10880 bytes, 1 tensors)

array f4 [21, 128]
00000000: 34a1 783d fb7e d8bc 3a33 c1bb 6c7d 013c
00000010: c8a1 833d b9af 983c 83f5 ecbc 0e76 203c
00000020: 6b26 d73c a431 69bc e3fa 563d 80f7 51bb
00000030: c9d6 763d 0b71 383d b4c2 3b3b 9bac a53c
00000040: 0d80 41bc 63b4 013d f868 0a3d fce5 9bbd
00000050: 951f 9fbc ed63 5dbc 8f38 803d b09b c2bd
00000060: 80e7 21bd 6740 0e3a db57 5e3c 6a40 0d3c
00000070: bba8 453d 3703 90bb be89 12bd 528a 003d
00000080: 46b1 a73d 32cf e93c 3fc9 893b 8fc1 503d
00000090: f362 213c dd49 10bd 3970 823c ca8c 0bbd
000000a0: 6a8d 4ebd c38f 76bd a5e3 1c3d 5f2d eb3b
000000b0: ffcd a53a 8d51 393b 4886 bd3c 26c8 503d
000000c0: baa7 3f3b 2f00 1d3b 36b1 f4bb cea4 99bd
000000d0: e907 873d 4a4c 21bc c981 5bbd 5b07 6d3c
000000e0: 81c5 cabc 3ccd ed3c ad84 833d 1513 0ebd
000000f0: 8a3f 42bd f2bd bc3c 1eb0 1dbd 84cc 323d
00000100: 2bd7 04bc 62ce 853c c023 63bd 35a3 993c
00000110: a311 f43c 0c8c 99bc a54a 82bd e773 e43c
00000120: f4d7 933c 1679 25bd 1285 9f3c 29c2 53bd
00000130: 0916 fbbc 6291 2fbd 917d fcbb 5883 473d
00000140: fa88 583c bfc9 223b e2d1 083d f779 103d
00000150: fe19 473d f555 b73c 6ad8 f73c e70f 223c
00000160: 977f 0abd 7e29 c0bb 4db4 a2bc 48e0 213c
00000170: 799f 15bd ccbb 80bd 97e0 2e39 1048 653d
00000180: e63b 35bd e5e0 5e3d c7d5 cfb9 17c5 84bc
00000190: c371 d3bc e736 dfbc 39c7 0d3d 40a9 283c
000001a0: 13b3 10bc dba6 ebbc 07f2 0f3d 5357 2b3d
000001b0: d99d 743c 5463 28bc 553a 583d 40be 05bd
000001c0: fc3a 57bc d880 973c 906c a3bc d24d f23a
000001d0: 5824 3b3c 6a2c 6cbc 5ebd 22bc ace3 9ebc
000001e0: cf63 f0bc 0d22 25bd f972 263d b46c f2bc
000001f0: 405e 84bd 9bd4 b5bc 29dc 1339 bec1 db3c
00000200: 7405 35ba 4ff7 94bd 1437 b13d 1cec a1bd
00000210: 8b82 86bc 9a18 0b3e 1fed ef3c a31a 873d
00000220: 5568 cf3d 3f29 373e 09b3 98ba 77d7 e1bd
00000230: c3ab 083e c119 09be f981 91bb 6200 19bd
00000240: eec4 bd3d 671f b0bc 74cf 383b 3f40 ad3d
00000250: aee8 ccbd 3efa 5b3d e13f a53d cf37 a43c
00000260: aa8c ddbd f619 4a3d f15a dcbd 9736 f53c
00000270: 54b3 84bc 4aff c9bd 13be 96be 4106 7a3d
00000280: 45b1 86be cb89 e1bd d144 b8bd 025f d83b
00000290: 7786 0bbe b73f df3d 67c9 2fbc bd00 9dbd
000002a0: 9776 e43d 10fb 7abd ca5d 89bc 9a17 fbbd
000002b0: 55b6 733e 2dff 4ebe 890b 913d c7b5 bdbd
000002c0: 0d40 b6bc 278a b0bc 110d 08be 80d4 35be
000002d0: 75ec 573d c671 8dbd 8cc8 7ebc 4484 a73d
000002e0: cf1f fd3d 6528 9cbd c23a 21be c27b 7fbc
000002f0: 700a 8cbd a0e8 ed3d 4dc5 8e3c dd30 ab3d
00000300: 6b18 11bd 6f0d 333e 3286 953c d5c4 1a3d
00000310: 8f8a f33c 62d9 023e 98e5 21be d70a f8bc
00000320: d7c5 e9bd b4e6 fabc 4db8 27be 5896 a1bd
00000330: 69df 043e cd82 16be 9d5e 993d a05a a3bc
00000340: 6dd2 21be b988 0dbe f814 653c 1a5e ec3d
00000350: 815f f43c 050f 5e3d 8c94 06bb 9a0a c5bd
00000360: b822 e4bc 0d5a 6bbd 93b2 d6bc 7884 353e
00000370: 478f 643e 5f2e 903d 82b8 51bb a229 1dbe
00000380: 103d aa3d 6f4f ae3c b45d 8cbc 2b09 11bc
00000390: 8948 a4bc 59e9 09be 4b42 1ebe da5d bbbc
000003a0: 25ce 883d b9d8 fcbc 3845 74bd 3e0b 283e
000003b0: 0e16 d53a 5edf cc3d 8edf 3e3d f9bb 2d3d
000003c0: a6cf debd 609c 853d d08e 033d a6cf 363e
000003d0: 5018 df3c d148 5f3c 3e7a dcbc abcc 0c3b
000003e0: 710d ff3c 4a58 123c 4a43 4e3e 533c dd3c
000003f0: 5fed 3e3e 273d b3bd f89f d73c f76e 0c3d
0.06070061 -0.026427737 -0.0058959993 0.007903438 0.06427342 0.018638479 -0.028925663 0.009793771
0.026263436 -0.014233027 0.052485358 -0.003203839 0.06026343 0.04502968 0.0028649988 0.020223906
-0.011810315 0.03166617 0.033791512 -0.076122254 -0.01942424 -0.013512594 0.06260788 -0.09502351
-0.039527416 0.0005426467 0.013570751 0.008621315 0.048256617 -0.0043949145 -0.035775892 0.031381913
0.08188109 0.028541181 0.0042048986 0.05096584 0.0098502515 -0.03522669 0.015922653 -0.034069814
-0.05042783 -0.060195696 0.038303036 0.0071770395 0.0012649893 0.0028277368 0.02313532 0.050972126
0.002924426 0.0023956408 -0.0074674143 -0.07502137 0.065933056 -0.009844849 -0.05359057 0.014467086
-0.02475238 0.029028527 0.0642179 -0.034686167 -0.047423877 0.023039792 -0.038498037 0.043652073
-0.008107941 0.016333763 -0.055454016 0.018754581 0.029793566 -0.018743537 -0.063618936 0.027887298
0.01804731 -0.04039868 0.019472633 -0.051698837 -0.030650156 -0.042863257 -0.0077053984 0.048709244
0.0132162515 0.0024839488 0.033403285 0.035272565 0.048608772 0.022379855 0.030254561 0.009891487
-0.033813085 -0.0058643213 -0.019861365 0.009880133 -0.036529038 -0.062858194 0.000166776 0.055976927
-0.044246577 0.054413695 -0.00039641393 -0.016207261 -0.025811082 -0.02724786 0.03461382 0.010294259
-0.008831757 -0.028766086 0.035142925 0.041831326 0.014930212 -0.010277588 0.052790005 -0.03265214
-0.013136622 0.018494055 -0.019949228 0.0018486327 0.011422239 -0.014414886 -0.009932844 -0.019395672
-0.029344467 -0.040315676 0.04063699 -0.02959285 -0.06463289 -0.022196105 0.00014101029 0.026825782
-0.00069054146 -0.07273733 0.086530834 -0.079063624 -0.01641967 0.13583604 0.029287873 0.065968774
0.10127322 0.17886828 -0.0011650036 -0.11027425 0.13346772 -0.1338873 -0.004440543 -0.03735388
0.09266077 -0.021499349 0.0028199824 0.084595196 -0.10005318 0.053705446 0.080688246 0.020046143
-0.10817845 0.049341165 -0.10759533 0.029933257 -0.016198792 -0.09863146 -0.2944189 0.06104112
-0.2630712 -0.1101261 -0.08997501 0.0066031227 -0.13625513 0.109008245 -0.01072917 -0.076661564
0.11155432 -0.061274588 -0.016768355 -0.12260361 0.23800023 -0.2021453 0.07082278 -0.09263187
-0.022247339 -0.021550251 -0.13286234 -0.17756844 0.052715737 -0.06906466 -0.015550744 0.081795245
0.12359583 -0.07624892 -0.1574507 -0.015593471 -0.06837928 0.11616635 0.017428065 0.08358929
-0.035423677 0.17485593 0.018252466 0.03778537 0.029729156 0.12778237 -0.1581024 -0.030278606
-0.11414688 -0.030627586 -0.16378899 -0.07890004 0.12975849 -0.14698334 0.07488749 -0.019940674
-0.15802927 -0.13821687 0.01398205 0.11541386 0.029830696 0.054213542 -0.0020535318 -0.09621163
-0.027848586 -0.057458926 -0.026208198 0.17726314 0.22320281 0.070400946 -0.0032000844 -0.15347913
0.08312428 0.021278111 -0.017134525 -0.0088522835 -0.020054119 -0.13467921 -0.15454976 -0.0228719
0.06679944 -0.03086506 -0.059636325 0.16410539 0.0016257183 0.100035414 0.046599917 0.042415593
-0.108794495 0.06523967 0.03211862 0.17852649 0.027233273 0.013628201 -0.026913758 0.0021484296
0.031134339 0.008932183 0.20142856 0.027006304 0.18645237 -0.08751898 0.026321396 0.03428551
