models/Basic/layers/VeltriAMPClassifier_lstm/0_weight.npy (npy, 102528 bytes, 1 tensors)

array f4 [64, 400]
0	0x3dc3a547	0.095530085
1	0xbdf1c4ec	-0.11805138
2	0x3e865b08	0.26241326
3	0xbe81d78f	-0.2535977
4	0x3e29285e	0.16519305
5	0x3e37d768	0.17953265
6	0xbdace2bb	-0.08441683
7	0x3e4e479c	0.20144504
8	0xbe2421ec	-0.16028565
9	0x3de55093	0.11197009
10	0x3de0614d	0.10956059
11	0x3ec3ed5a	0.38267022
12	0x3da6b9f4	0.081409365
13	0x3e91a279	0.2844427
14	0x3d475960	0.04866922
15	0x3dac319d	0.084079005
16	0xbd7fcff2	-0.06245417
17	0x3e84779f	0.25872514
18	0xbdbd54c1	-0.09244681
19	0xbcb4d952	-0.022076283
20	0xbd8be193	-0.06830134
21	0x3e5b33c0	0.2140646
22	0xbe20cd0a	-0.15703216
23	0xbd927acb	-0.07152327
24	0x3d981757	0.07426327
25	0xbdb4cfef	-0.08828723
26	0x3de36c4a	0.11104639
27	0xbd5c0fdc	-0.053726062
28	0xbc5e7f6f	-0.013580187
29	0x3dc239be	0.0948367
30	0x3d5ebd71	0.054379884
31	0xbcefbb9e	-0.029264268
32	0x3e6fc0c7	0.23413382
33	0xbdea448a	-0.11438854
34	0xbd3a2181	-0.045442108
35	0x3e66804f	0.22509883
36	0xbcec06c8	-0.028811827
37	0x3d8bfba7	0.06835108
38	0x3e47b2d3	0.1950181
39	0x3e8f4df2	0.27989155
40	0x3ec79b59	0.38985708
41	0x3e3c70b1	0.18402363
42	0xbe1daab2	-0.15397146
43	0xbc385b44	-0.011252228
44	0x3be056be	0.006846278
45	0x3e08c90b	0.13357942
46	0x3d216f23	0.03941263
47	0x3e2dce63	0.16973262
48	0x3cb3ef3d	0.021964664
49	0x3d15e68e	0.036596827
50	0xbe212b65	-0.1573921
51	0x3e63b529	0.22237076
52	0x3e5dde11	0.21666743
53	0xbdf88c2f	-0.12136113
54	0x3e108d84	0.14116484
55	0xbcd95c1d	-0.02653318
56	0xbe0638bb	-0.13107578
57	0xbd19743a	-0.037464358
58	0x3e0f2fee	0.13983127
59	0x3dbeb659	0.09312124
60	0x3d18404d	0.037170697
61	0x3e50a520	0.2037549
62	0xbda4c246	-0.08044867
63	0x3e1647fe	0.146759
64	0xbd61922e	-0.05507105
65	0xbd956d18	-0.072961986
66	0x3e8edeb5	0.27904287
67	0x3db2ff01	0.087400444
68	0x3e33ce20	0.17559099
69	0x3e1b0761	0.15139534
70	0x3e9e9d55	0.3097941
71	0x3e1e6724	0.15469033
72	0xbde3f7a8	-0.11131221
73	0x3ec150f4	0.37757075
74	0x3ebfcc0f	0.37460372
75	0xbdadf1b3	-0.08493366
76	0x3dd389f2	0.10329045
77	0xbca71080	-0.02039361
78	0x3e0bbe15	0.1364673
79	0xbc8ea418	-0.01741223
80	0x3c85a6be	0.01631486
81	0x3d06a0d1	0.03286821
82	0xbdfe9181	-0.124300964
83	0x3d673846	0.05645015
84	0x3d6330b7	0.05546638
85	0x3d9fe6ca	0.078076914
86	0x3ea1fd9b	0.31638798
87	0x3d11fd75	0.035642106
88	0xbdc22cc0	-0.09481192
89	0x3e43bf82	0.19116023
90	0x3d631373	0.05543847
91	0x3e198290	0.14991212
92	0x3e0a8ac5	0.13529499
93	0x3a5b59a7	0.0008367546
94	0x3e1c078e	0.15237257
95	0x3d6e6b97	0.058208074
96	0x3ded0396	0.115729496
97	0x3c1f378f	0.009717836
98	0x3e4b1cdf	0.19835232
99	0x3e053993	0.13010244
100	0x3d0c8f69	0.034316454
101	0xbd8f0160	-0.06982684
102	0x3e17356e	0.14766476
103	0xbe04bbcd	-0.12962265
104	0xbd88b7ef	-0.066757075
105	0x3c264641	0.010148586
106	0x3dace918	0.084428966
107	0x3b97422f	0.004616044
108	0xbdad0e25	-0.084499635
109	0x3e29764f	0.16549037
110	0xbd0a1696	-0.033712946
111	0xbe497a33	-0.19675522
112	0xbab56bba	-0.0013841309
113	0x3e6ef363	0.23335032
114	0x3e0f7f9a	0.1401352
115	0xbe160227	-0.14649259
116	0x3afb713a	0.0019183524
117	0xbe2bb3a2	-0.16767743
118	0x3cdaf19a	0.026726533
119	0x3dd4f3b4	0.10398045
120	0x3d233569	0.039845858
121	0xbdb01656	-0.0859801
122	0x3dbcd20e	0.09219752
123	0xbe5426ef	-0.20717977
124	0x3d84cff6	0.06484978
125	0x3cbb191e	0.022839125
126	0x3d408b55	0.047007877
127	0x3d85d284	0.06534293
128	0xbda9d446	-0.08292441
129	0x3d09dd05	0.033658046
130	0x3d0ca27d	0.03433465
131	0xbd58c4ff	-0.052922245
132	0x3d0e8ea7	0.034804013
133	0xbc725784	-0.014791373
134	0xbe3bbe39	-0.18334283
135	0x3d9bea7e	0.07613085
136	0xbcd4944d	-0.025949622
137	0xbca5f234	-0.020257093
138	0x3a524bc4	0.0008022154
139	0x3d4bf9ae	0.04979866
140	0xbe0132ad	-0.12616988
141	0xbd61b11c	-0.055100545
142	0xbe096922	-0.13419011
143	0x3dfafce5	0.12255267
144	0xbd458ed7	-0.048231926
145	0xbe279557	-0.16365562
146	0x3ddaec75	0.10689632
147	0x3d6603b4	0.056155875
148	0x3cc76bad	0.024343336
149	0x3c4462e6	0.01198647
150	0xbd07aa20	-0.03312123
151	0x3cec7125	0.028862545
152	0x3d85338a	0.06503971
153	0xbd2b0822	-0.041755803
154	0xbe45f4ea	-0.19331709
155	0xbd9839a1	-0.07432867
156	0xbe7681c6	-0.24072942
157	0xbc9088f5	-0.017643431
158	0x3de50bf9	0.11183924
159	0xbd4484e5	-0.0479783
160	0xbd3d74b2	-0.046253867
161	0x3b6cd0e1	0.0036135244
162	0xbddd5b5e	-0.108084425
163	0x3de964a9	0.113961525
164	0x3e010b9d	0.12602086
165	0xbda5fa35	-0.08104364
166	0xbd95ad8d	-0.07308493
167	0xbceed0fe	-0.02915239
168	0x3e11259d	0.14174505
169	0xbc22eec0	-0.009944618
170	0x3db3133c	0.08743903
171	0x3e887973	0.26655158
172	0xbddd2c44	-0.107994586
173	0xbe914852	-0.2837549
174	0xbdc03366	-0.093848035
175	0x3e13b024	0.14422661
176	0x3dc00778	0.093764246
177	0x3d89090c	0.06691179
178	0x3d98ec97	0.07467001
179	0xbde49228	-0.111606896
180	0xbe0468c6	-0.12930593
181	0xbd4854f6	-0.04890915
182	0x3e19cc37	0.15019308
183	0xbde5191a	-0.11186428
184	0x3ce29010	0.027656585
185	0x3b99c7b9	0.0046929982
186	0xbcf74332	-0.030183408
187	0xbce4db4a	-0.027936596
188	0xbd4891fb	-0.048967343
189	0xbdc577a4	-0.0964196
190	0x3e17d06d	0.14825602
191	0xbe07f1e7	-0.13275872
192	0xbe239c10	-0.15977502
193	0x3c9a50ec	0.018837415
194	0x3ddc1aaf	0.10747277
195	0xbdce2c85	-0.10067085
196	0x3d22cadf	0.039744254
197	0x3cd39da9	0.025832014
198	0x3de093bd	0.10965679
199	0x3e305661	0.17220451
200	0x3dd109b1	0.102069266
201	0x3c4a52ee	0.012348874
202	0x3d6bf93a	0.057610728
203	0xbd6bae55	-0.057539303
204	0xb9de1b24	-0.0004236336
205	0x3d3e56fa	0.046469666
206	0xbe1ba177	-0.15198313
207	0xbd5f6186	-0.054536365
208	0x3df456c5	0.119306125
209	0xbdf9724a	-0.12180002
210	0xbe20eebe	-0.15716073
211	0x3e428b00	0.18998337
212	0xbd5d2f3d	-0.054000128
213	0x3d858923	0.065202974
214	0x3e0c281c	0.13687176
215	0x3e4f4764	0.20242077
216	0x3bff0e18	0.0077836625
217	0xbe73f063	-0.23822169
218	0x3e3a84ad	0.18214674
219	0x3e2c3e13	0.16820554
220	0xbde93059	-0.11386175
221	0x3e55709b	0.20843737
222	0x3c9ea1fd	0.019364351
223	0x3e061b3a	0.13096324
224	0x3e019049	0.12652697
225	0xbe01e2a4	-0.12684113
226	0x3e29eec2	0.16594985
227	0x3d3426bc	0.043982252
228	0x3e92a984	0.28644955
229	0x3d6d76c3	0.057974588
230	0x3d23edc6	0.04002168
231	0xbe414b2f	-0.18876337
232	0x3c58c43f	0.013230382
233	0x3c08762e	0.0083289575
234	0x3e8294be	0.25504106
235	0x3df673e5	0.12033824
236	0x3e13b45c	0.1442427
237	0xbdad4925	-0.08461217
238	0xbe554025	-0.2082525
239	0x3dd0d6b0	0.101971984
240	0x3e3afa48	0.18259537
241	0x3e15fc81	0.14647104
242	0x3c728677	0.014802567
243	0xbda4bf2e	-0.08044277
244	0x3e24131c	0.16022915
245	0x3bcee47f	0.00631386
246	0xbe1eb832	-0.15499952
247	0x3d7b3ac5	0.061335344
248	0xbdb39d86	-0.087702796
249	0x3dd0c0d5	0.1019303
250	0x3d82823a	0.06372495
251	0xbdd4f879	-0.10398955
252	0x3dfc0390	0.12305367
253	0xbd87b210	-0.066257596
254	0x3c52d2bb	0.012867625
255	0xbd8d5f7a	-0.06902976
