models/mic_classifier/layers/WittenAMPRegressor_dense_a/0_weight.npy (npy, 51328 bytes, 1 tensors)

array f4 [128, 100]
000000 94 c2 06 3d ec 83 03 3e c0 bf 58 be 7d be d6 bd
       0.032900408 0.12843293 -0.21166897 -0.104855515
000010 f9 36 3b 3d a2 92 13 be a0 3b 87 bb b9 72 ef 3d
       0.045706723 -0.14411405 -0.004126981 0.116918035
000020 08 f8 0a bd a1 01 6d be ec ed 3b bd 44 9a 87 bc
       -0.033927947 -0.23145153 -0.045881197 -0.016553052
000030 21 47 9e be 99 f7 0e be 24 f5 5a be 3e 20 3f be
       -0.30913642 -0.13961639 -0.21382576 -0.18664643
000040 1d d5 00 be 9f be 50 be cd 68 58 be d0 4e 5d be
       -0.12581296 -0.20385216 -0.21133728 -0.21612096
000050 76 02 ee 3c b8 1d 81 bd e2 d5 39 bc a6 65 5a 3e
       0.029053908 -0.063044965 -0.011342498 0.21327838
000060 f1 3e 45 be 83 88 0b bd 88 72 2e 3e e7 34 4b be
       -0.19262291 -0.034065735 0.17035878 -0.198444
000070 b8 08 94 bd b0 8f 73 be 08 6b 04 be 75 9a 04 be
       -0.072282255 -0.23785281 -0.12931454 -0.12949546
000080 1f a6 93 bc 13 4e 04 3e 3f f3 4c be 9a 3b fb 3c
       -0.018023549 0.12920408 -0.20014666 0.030668069
000090 26 1c 51 3d a4 e3 01 be bb b9 91 be 0e e4 35 3e
       0.051052235 -0.12684494 -0.28462014 0.17762777
0000a0 ef 66 c0 bd 35 24 2e be 61 b5 ef bd b8 c7 11 3e
       -0.09394633 -0.17006 -0.11704517 0.14236343
0000b0 c1 2c b1 bd 6d b9 ac 3d e9 f9 44 3c 81 76 98 3c
       -0.08651114 0.08433805 0.012022474 0.018611195
0000c0 11 1d 6a 3b 72 1a 4b bd bd b1 7a 3c 36 c2 ab bd
       0.0035722891 -0.049585767 0.015301165 -0.08386652
0000d0 ac 3f dd bc 8e e9 d5 bc 4b e7 1d bb b8 ae 9b bd
       -0.0270079 -0.026112344 -0.002409416 -0.07601684
0000e0 ed a7 7e 3b d4 74 14 3d 02 f6 99 be 3b 7d 91 bd
       0.0038857416 0.03624423 -0.30070502 -0.07103964
0000f0 52 1a 5a 3d 04 30 ba bb 3f 63 86 be 44 bf 4b bd
       0.053247757 -0.0056819934 -0.26247594 -0.049742952
000100 40 54 f9 bd fd 5f ae 3d 9d df c1 3d ba 01 3e 3c
       -0.121742725 0.08514402 0.09466479 0.011597091
000110 d0 27 e7 bd a9 0a 55 3e ff 18 8d be e0 a3 b1 bd
       -0.112868905 0.20804848 -0.27558133 -0.08673835
000120 4b bc 83 be 57 12 cd bc 7f 83 8a bd b0 3e 88 3d
       -0.25729594 -0.02503316 -0.06763362 0.06652582
000130 38 b3 62 be 47 14 c1 bd d6 57 9d 3d 2c 53 44 3d
       -0.22138679 -0.09427696 0.07682769 0.04793088
000140 cc e4 e5 bc 54 f4 2b 3d 2a 64 75 3d 02 b5 3c 3d
       -0.0280632 0.041981056 0.059909977 0.04607106
000150 b1 83 00 3e 83 f4 d5 3d ca f9 52 bd 4d c6 ff bd
       0.12550236 0.104470275 -0.05150775 -0.12488995
000160 0e 3c 03 3e 41 95 17 bd 27 19 1f 3d 19 1e 55 be
       0.12815878 -0.037007574 0.038842347 -0.20812263
000170 1d 4b b4 3d 80 c5 41 3e b6 74 af bb 40 51 f8 bd
       0.08803389 0.18922997 -0.005354489 -0.12124872
000180 f8 f1 15 bc 68 df e7 3c 69 15 8b bd c4 90 78 3e
       -0.009151928 0.02830477 -0.06791193 0.24273974
000190 8c f9 58 be 88 c7 70 3e 58 1d 07 bc 30 bd 16 be
       -0.21188945 0.23513615 -0.008246742 -0.14720607
0001a0 ae a5 85 3e 24 34 8f 3d 32 ae e3 3d 15 7c 2e 3e
       0.26102966 0.06992367 0.111172095 0.17039521
0001b0 80 31 8d 3d 50 e5 0f bb b7 f6 6c bd 23 90 79 bd
       0.06894207 -0.002195675 -0.057852473 -0.060928475
0001c0 3d f7 bb bd 76 30 27 3d 02 c6 d6 3c 4e b7 a3 bd
       -0.09178016 0.0408177 0.026217464 -0.07993947
0001d0 a7 63 10 3e 69 ab c1 bd 70 97 3c 3e a1 94 34 bd
       0.14100514 -0.09456522 0.18417144 -0.044087056
0001e0 ee 73 7e 3d 6d 1b c9 bc 4f b9 23 3e 4e e5 4f 3e
       0.062122278 -0.02454921 0.15988658 0.20302317
0001f0 c2 77 0b 3d 18 6e 90 3d 8c 0e 2e bd 5e 8b 99 3d
       0.034049757 0.07052249 -0.04249434 0.07497285
000200 5c cf 46 3d 5d bf 14 bd c9 dc 0b be 5d 0d b3 bd
       0.048537597 -0.03631531 -0.13658442 -0.08742783
000210 ba 5e 2b 3e dd 1e 03 3d 70 87 32 3d d6 54 02 bd
       0.16735354 0.032011855 0.043586195 -0.031819187
000220 81 10 7e bd 37 9c 5e be 1b 03 1d be 21 39 6f 3e
       -0.062027458 -0.21739279 -0.15333216 0.23361637
000230 62 7a 4a 3e 9c ea e9 3d 5e dc e2 3d 2e f2 89 3e
       0.19773248 0.11421701 0.11077188 0.2694258
000240 1f a1 20 3e 2d a7 31 bc 34 36 68 3e de 41 06 3c
       0.15686463 -0.0108430805 0.22676927 0.008194415
000250 a5 94 92 bc a4 9f 31 be 8c 85 87 bd 39 66 a4 3d
       -0.017893145 -0.17346054 -0.06617269 0.0802731
000260 e0 48 e9 bd a3 fc 31 be 67 97 94 3c 8d 56 2d 3e
       -0.11390853 -0.1738153 0.0181386 0.16927548
000270 88 40 e6 bd c5 74 08 be cf 0e 62 3d d3 62 e8 3a
       -0.11242777 -0.13325794 0.055189904 0.0017729647
000280 b4 8e 78 bd dc 94 16 be 76 1a e1 bd 7f 84 86 bd
       -0.060682967 -0.14705223 -0.10991375 -0.065682404
000290 04 47 db 3d de 3a 37 3e 8e 2b a6 3d e3 27 0d 3d
       0.107069045 0.1789355 0.08113776 0.034461867
0002a0 26 c9 88 bd f5 c0 86 3d b2 ff 45 3e 0c b2 00 3e
       -0.06678991 0.065797724 0.19335821 0.1256792
0002b0 39 0e 12 3d b6 dd 9e 3d 89 ec 0f be 4f 46 98 3c
       0.035658095 0.07757132 -0.14055075 0.018588213
0002c0 c3 7f 11 3e ca 69 21 bd 51 f5 1f bd 87 df 0d bd
       0.14208893 -0.03940753 -0.03905231 -0.034637
0002d0 5a c1 41 bd 3c b1 a4 3d a1 3e 01 3e 51 d4 95 3a
       -0.047303535 0.08041617 0.12621547 0.0011431073
0002e0 5a c0 8e 3e c2 89 df 39 e4 df 95 bd a6 fe 1d bc
       0.27881128 0.00042636512 -0.073180944 -0.009643232
0002f0 d5 d9 32 be 51 1b 9b bd 56 bd 23 be 55 b0 13 3e
       -0.17465909 -0.075735696 -0.15990195 0.14422734
000300 8e bb b8 3c 99 b9 b4 3d 22 06 60 3d be 6a 49 3d
       0.02255037 0.088244624 0.05469335 0.049174063
000310 5b 0f 14 3e a9 00 d4 bd c6 db ea bd c3 30 88 3e
       0.14458983 -0.103516884 -0.114677 0.26599702
000320 5e 3d 86 bb 95 82 3f be 98 ec 8a 3d 69 26 33 bd
       -0.004096671 -0.18702157 0.06783408 -0.043737803
000330 4d 9e d4 bd 2e 99 e8 bd 8c b3 32 3e d4 34 37 3c
       -0.10381756 -0.11357342 0.17451304 0.011182029
000340 c0 17 21 be 32 a0 9e bc 34 b9 1e 3e 53 b4 06 3d
       -0.15731716 -0.019363496 0.15500337 0.032886814
000350 df fc e0 3d b3 4c 1a 3e 17 46 ca 3e c5 c8 f5 bd
       0.10985731 0.15068321 0.395066 -0.120011844
000360 ac 74 cc bc 89 86 19 3e 71 9b d0 bd c8 bb fe 3d
       -0.024957977 0.14992727 -0.10185898 0.1243816
000370 e9 cd 22 3d 8c 81 fe bd ed 9b 1c 3e c8 c3 5b be
       0.039747152 -0.12427053 0.15293856 -0.21461403
000380 94 04 f0 3c 6a d5 82 3e e4 0d d2 3d ed 59 1c 3d
       0.029299058 0.25553447 0.10256556 0.038171697
000390 04 c1 07 3e da 2f 96 bd 91 43 f9 3c 20 5e 83 3d
       0.13257223 -0.07333346 0.030427726 0.06414437
0003a0 54 70 b3 3c 8f 85 d8 3d b4 d1 51 3e be 5c e4 3c
       0.021904148 0.10572349 0.20490152 0.027876254
0003b0 a2 5a 6a 3e 10 ea 76 3d a5 df 90 bd 98 5b 24 3d
       0.22886136 0.060281813 -0.07073907 0.040126413
0003c0 ba b0 46 3e 12 11 68 3d f4 f5 95 bd 2e 57 43 be
       0.19403353 0.056656905 -0.073223025 -0.19076225
0003d0 28 d1 e4 bc 2c e2 d2 bd 32 5f be bd 9c 92 49 3e
       -0.027931765 -0.10297045 -0.09295501 0.19684833
0003e0 7c 76 12 3a e1 6b 4e bd 14 c6 ad bd b1 18 32 3e
       0.00055871136 -0.05039585 -0.08485046 0.17392232
0003f0 d0 dd b3 3d 89 0e 1e 3e 84 b9 8c 3d ac de 5e bd
       0.08782542 0.15435232 0.06871322 -0.054411575
