models/mic_classifier/layers/WittenAMPRegressor_dense_a/1_weight.npy (npy, 528 bytes, 1 tensors)

array f4 [100]
0.10758466 -0.14797415 -0.007879698 0.09219129 -0.086866826 -0.02860455 0.0028660754 -0.022233494
0.050373543 0.039417583 0.0026322166 -0.14551403 0.04413227 0.0048173023 0.029562408 0.05429161
0.10339702 0.02589217 -0.09423355 0.0075455164 0.021681752 0.04250062 -0.038492702 -0.0152739445
-0.024222508 0.1033421 -0.015733618 -0.020373903 -0.038358808 -0.08002253 -0.008734219 -0.025522752
-0.10718885 0.05628322 0.008144483 0.123890184 0.03244686 0.076741494 -0.040687088 -0.0065521137
0.036016986 -0.013425302 -0.07519989 -0.046895165 -0.0675678 0.007257028 -0.07022679 0.06650704
0.13173614 -0.059666913 -0.04273775 -0.028547134 0.03485219 0.08702135 -0.058424845 -0.03825211
-0.08636296 0.00066376815 0.010922409 0.012875844 0.024394743 0.020570818 -0.033676066 0.0011628866
0.057322282 0.067460075 -0.10256403 0.023029685 0.11729952 -0.15917787 -0.0075318147 0.0664009
0.01046883 0.0062431935 -0.11089201 -0.0594885 0.036940377 -0.036864065 0.023264734 0.024311444
-0.020332435 0.053840548 0.014362725 0.031107746 -0.22042075 -0.043648917 -0.08595946 0.034997933
0.057756636 0.010948315 0.12704612 -0.051472373 0.08579033 0.023010029 0.106246404 -0.1121692
-0.13108471 0.09737188 -0.021805774 -0.021891026
00000000: 5955 dc3d 8986 17be d919 01bc c9ce bc3d
00000010: 3ce7 b1bd 1754 eabc c4d4 3b3b 0423 b6bc
00000020: 7d54 4e3d 5574 213d 4481 2c3b a101 15be
00000030: 0ac4 343d 76da 9d3b dd2c f23c e160 5e3d
00000040: d1c1 d33d d11b d43c 85fd c0bd 6140 f73b
00000050: ee9d b13c 2115 2e3d 86aa 1dbd 913f 7abc
00000060: 486e c6bc 06a5 d33d cae3 80bc 2ce7 a6bc
00000070: 201e 1dbd dae2 a3bd f819 0fbc 1715 d1bc
00000080: d485 dbbd 3c89 663d 7070 053c 23ba fd3d
00000090: 00e7 043d a52a 9d3d 81a7 26bd 1db3 d6bb
000000a0: 8c86 133d ccf5 5bbc 6602 9abd 2515 40bd
000000b0: fd60 8abd 5dcc ed3b 10d3 8fbd d834 883d
000000c0: d7e5 063e 4b65 74bd c70d 2fbd aedb e9bc
000000d0: 2cc1 0e3d 4038 b23d e44e 6fbd 3fae 1cbd
000000e0: 10df b0bd ba00 2e3a e7f3 323c 34f5 523c
000000f0: 7cd7 c73c 2284 a83c eaef 09bd 006c 983a
00000100: c5ca 6a3d 8228 8a3d 170d d2bd c0a8 bc3c
00000110: bb3a f03d 86ff 22be 71cd f6bb 32fd 873d
00000120: 7585 2b3c b493 cc3b 5a1b e3bd 37aa 73bd
00000130: cb4e 173d c6fe 16bd af95 be3c cb28 c73c
00000140: 3590 a6bc e887 5c3d a351 6b3c acd5 fe3c
00000150: fab5 61be 35c9 32bd 830b b0bd fe59 0f3d
00000160: 3992 6c3d 9060 333c 6118 023e b2d4 52bd
00000170: d7b2 af3d 877f bc3c b797 d93d f7b8 e5bd
00000180: 123b 06be e96a c73d 06a2 b2bc cf54 b3bc
