models/mic_classifier/layers/WittenAMPRegressor_gru_b/0_weight.npy (npy, 98432 bytes, 1 tensors)

array f4 [128, 192]
0	0xbe0f234a	-0.13978305
1	0xbde48f04	-0.111600906
2	0x3dd32a9a	0.1031086
3	0x3bad273b	0.0052842177
4	0x3e75ac68	0.23991549
5	0xbb805a9b	-0.003917051
6	0xbe3bf77e	-0.1835613
7	0x3db3e81f	0.08784508
8	0x3e91f560	0.2850752
9	0x3e2d5fc8	0.16931069
10	0xbdd72c28	-0.10506469
11	0xbdb8ae5e	-0.09017633
12	0x3e84dc00	0.25949097
13	0x3e095743	0.13412194
14	0xbe2b9074	-0.16754323
15	0xbcbe6260	-0.023240268
16	0xbd39d7fe	-0.045372
17	0x3d9e0f0b	0.07717713
18	0xbdeec46d	-0.11658559
19	0xbe66a46b	-0.22523658
20	0xbd8b44f6	-0.06800263
21	0x3e2f7eab	0.17138164
22	0x3c0243f3	0.007950771
23	0xbe10ac92	-0.1412833
24	0x3e954806	0.29156512
25	0x3e9cd02a	0.30627567
26	0xbdea1865	-0.11430434
27	0xbe17bef4	-0.14818937
28	0xbde49b66	-0.111624524
29	0x3e75cecf	0.24004672
30	0x3b8416a7	0.0040310207
31	0xbeae7c83	-0.3407937
32	0x3e55c57a	0.20876113
33	0xbd6a4635	-0.05719586
34	0x3da4acf2	0.08040799
35	0x3e71a0f3	0.23596554
36	0xbe1ddfac	-0.15417355
37	0x3e815e29	0.2526715
38	0x3cd81078	0.02637504
39	0x3d599a01	0.053125385
40	0xbe03e422	-0.12879995
41	0x3d2ccc25	0.042186875
42	0xbe62f368	-0.22163165
43	0x3dd35cc0	0.10320425
44	0x3dc78835	0.09742776
45	0xbe3bfd31	-0.18358304
46	0xbdcc0de9	-0.09963591
47	0x3e0279f1	0.1274183
48	0xbe0428fe	-0.12906262
49	0x3e39f822	0.18161061
50	0x3e87b4bc	0.26505077
51	0xbd5d4f46	-0.05403068
52	0xbd8fe2fa	-0.07025714
53	0xbe0b62d9	-0.13611926
54	0x3d8593e5	0.06522349
55	0xbd02a319	-0.031893823
56	0xbd297ef8	-0.041380852
57	0xbd97d682	-0.07413961
58	0xbe0d52e1	-0.13801147
59	0x3e995978	0.29951072
60	0x3d5c8e02	0.053846367
61	0x3e0d60f0	0.1380651
62	0xbccb681f	-0.024829922
63	0x3e25ddc7	0.16197883
64	0x3e4234d3	0.18965463
65	0x3e2877ed	0.16451998
66	0x3d0548de	0.032540195
67	0xbe0f8b0e	-0.14017889
68	0xbe89e910	-0.26935625
69	0x3e8e480d	0.27789345
70	0x3e211316	0.15729937
71	0xbda1c5ba	-0.078990415
72	0xbe5577bf	-0.20846461
73	0x3da6c1e4	0.081424505
74	0x3c9bd288	0.019021288
75	0xbdb09eaf	-0.086240165
76	0xbda8827a	-0.082280114
77	0xbe2e72d9	-0.17035998
78	0xbd07e044	-0.03317286
79	0xbe1042eb	-0.14088027
80	0xbd0f30bb	-0.034958582
81	0x3e2e2ae7	0.17008553
82	0xbd644c84	-0.055737033
83	0x3e17b7e6	0.14816245
84	0x3dd07ff4	0.10180655
85	0xbe5e1fd8	-0.21691835
86	0xbcf695e6	-0.030100774
87	0xbde50c71	-0.11184014
88	0x3d0ba8cb	0.03409652
89	0x3cb789cb	0.022404572
90	0xbe9dcb9a	-0.30819398
91	0xbe2655fe	-0.16243741
92	0xbdc6391b	-0.09678861
93	0xbe882e16	-0.2659766
94	0xbe67e10a	-0.2264444
95	0x3d6f442f	0.058414634
96	0x3ea610b5	0.3243462
97	0x3dc67aba	0.09691377
98	0xbdf4abb5	-0.11946813
99	0xbe2e3b5d	-0.17014833
100	0x3dcf6885	0.101273574
101	0x3d4fd9a0	0.050744653
102	0x3d0abfc2	0.03387428
103	0x3d6f7f3d	0.058470953
104	0xbd28fe2e	-0.04125803
105	0xbe851471	-0.25992158
106	0xbd627ddf	-0.05529582
107	0xbd0ed640	-0.034872293
108	0x3af39745	0.001858451
109	0xbd8a4b93	-0.06752696
110	0x3e74cc9f	0.23906182
111	0x3dbc16c5	0.091840304
112	0x3c848f5c	0.01618164
113	0xbd209558	-0.039204925
114	0xbd7feb69	-0.062480364
115	0xbd0c3624	-0.03423132
116	0x3d92c4ed	0.07166467
117	0xbdce239a	-0.10065384
118	0xbd0db5eb	-0.03459732
119	0x3e3da7e2	0.18521073
120	0x3e2d21f0	0.16907477
121	0xbd852a66	-0.065022275
122	0xbe3ec68d	-0.18630429
123	0x3eb3fe6d	0.3515505
124	0xbd9d2496	-0.07672994
125	0xbe986904	-0.2976762
126	0x3d6e993c	0.058251604
127	0xbe0496fe	-0.12948224
128	0x3e57adee	0.21062443
129	0xbcd24b99	-0.025670813
130	0x3d01508e	0.031570964
131	0x3d37a1c7	0.044832017
132	0xbc5006e9	-0.01269696
133	0xbc6f8344	-0.0146186985
134	0xbe520be6	-0.20512351
135	0xbd82b6b1	-0.06382502
136	0xbd52297f	-0.051309105
137	0x3db4580c	0.08805856
138	0x3e1a9a7a	0.1509799
139	0x3e5fe9ee	0.21866581
140	0xbda4b932	-0.08043136
141	0xbe15d2b0	-0.14631152
142	0x3c6b3ac6	0.014357274
143	0x3da3ddd2	0.08001293
144	0x3e0ff6ab	0.1405894
145	0xbce6c30e	-0.028169181
146	0x3d39baea	0.04534427
147	0x3dac370d	0.084089376
148	0xbce19096	-0.027534764
149	0x3daaea48	0.08345467
150	0xbce83af2	-0.02834842
151	0xbc9c7168	-0.019097045
152	0xbdfea57e	-0.12433909
153	0xbd40df20	-0.04708779
154	0xbdd08dd1	-0.10183299
155	0xbc5d2d83	-0.01349962
156	0x3d0b9325	0.034075875
157	0xbe2a0c30	-0.16606212
158	0x3d8508d8	0.064958274
159	0xbde0bffd	-0.10974119
160	0xbdde31ff	-0.1084938
161	0xbdfa522a	-0.12222703
162	0x3e1a262c	0.15053624
163	0xbba0e448	-0.0049100257
164	0xbcc35e96	-0.023848813
165	0x3d69e7f4	0.057105973
166	0x3dc10339	0.09424443
167	0x3cebb9f0	0.028775185
168	0xbdcfce05	-0.10146717
169	0xbdb82545	-0.089914836
170	0xbdf3f99a	-0.11912842
171	0xbe2ee8f3	-0.1708105
172	0x3dec8813	0.115493916
173	0xbb82efa6	-0.0039958535
174	0x3dcfb100	0.10141182
175	0xbca5f175	-0.020256737
176	0xbd4993ec	-0.049213335
177	0x3d60ba8c	0.054865405
178	0x3d11303c	0.03544639
179	0x3b7c7987	0.0038524584
180	0x3e33bc7c	0.1755237
181	0x3dcdf6d5	0.10056845
182	0x3e26f3fa	0.16304007
183	0xbdeb3ad6	-0.114858314
184	0xbe62da4e	-0.22153589
185	0xbde9d34e	-0.11417256
186	0xbdd9b330	-0.106298804
187	0xbdb5a87f	-0.08870029
188	0xbd9c84ed	-0.07642541
189	0x3dd25049	0.102692194
190	0x3dd28c0a	0.102806166
191	0x3e16ef6d	0.14739771
192	0xbd6ab1dc	-0.057298526
193	0xbbc1e780	-0.0059174895
194	0x3ce4c2b7	0.027924879
195	0x3dc958c8	0.09831387
196	0xbea4097c	-0.32038486
197	0x3e12da50	0.14341092
198	0x3d492818	0.049110502
199	0xbdf83888	-0.121201575
200	0x3e850015	0.25976625
201	0x3e627dbb	0.22118275
202	0xbcf5344a	-0.02993216
203	0x3dd487d1	0.103774674
204	0xbda59976	-0.08085911
205	0xbd36442a	-0.0444986
206	0xbd4d033d	-0.050051916
207	0x3d044c6f	0.032299455
208	0xbe8122f0	-0.25221968
209	0xbd40b44d	-0.04704695
210	0xbd9772b4	-0.07394925
211	0xbe8ef447	-0.27920744
212	0xbe3bfb4d	-0.18357582
213	0xbd81b01e	-0.0633242
214	0xbdbfd327	-0.09366446
215	0xbd050b8d	-0.03248172
216	0x3e649033	0.22320633
217	0x3a8660e8	0.0010252269
218	0xbed1ebd8	-0.41000247
219	0xbe1effab	-0.15527217
220	0x3cbadf68	0.022811607
221	0xbeb1691c	-0.34650505
222	0xbe1868d9	-0.14883746
223	0xbe3498d2	-0.17636421
224	0xbe1f4946	-0.15555295
225	0x3cc8408a	0.024444837
226	0x3c6bee42	0.014400067
227	0xbceba82e	-0.028766718
228	0xbdbac38c	-0.09119329
229	0x3e6a7a06	0.22898111
230	0xbe8d8514	-0.27640593
231	0xbca18e7b	-0.01972126
232	0xbd6db094	-0.058029726
233	0x3e814094	0.25244582
234	0x3bfaf796	0.007658909
235	0xbe49eee6	-0.19720039
236	0x3da46368	0.08026773
237	0x3cb85d09	0.0225053
238	0x3db139cf	0.08653604
239	0x3dd92d32	0.106043234
240	0xbd801d78	-0.06255621
241	0x3db14344	0.08655408
242	0x3cf8d347	0.030374182
243	0xbdf19d2e	-0.11797558
244	0xbe5d320b	-0.21601121
245	0x39b1eba0	0.00033935625
246	0xbd625e1b	-0.055265527
247	0xbe02e6c7	-0.12783347
248	0xbe22d132	-0.15900114
249	0xbd74b5b8	-0.059743613
250	0xbe2c91f8	-0.16852558
251	0x3cd4adca	0.025961775
252	0x3d98e010	0.074646115
253	0xbcbe2783	-0.0232122
254	0x3d7f938a	0.062396564
255	0xbe9750aa	-0.2955373
