models/mic_classifier/layers/WittenAMPRegressor_gru_b/1_weight.npy (npy, 49280 bytes, 1 tensors)

array f4 [64, 192]
-0.15109657 -0.20545287 -0.22799101 -0.024081316 0.11823538 0.038701624 -0.08544084 -0.0048835524
-0.06902418 0.013618031 -0.17594586 -0.110726915 -0.032429233 -0.011770063 0.019233992 -0.17386298
0.09952517 -0.06170011 0.040763598 -0.1776596 0.029097838 -0.06863359 -0.04529311 -0.32689396
0.10000009 -0.072857864 -0.09416981 -0.19039132 0.07022673 0.0033856337 0.1271318 -0.15091805
-0.18775421 -0.15575801 -0.22316247 0.27470434 -0.28714457 -0.08086437 0.2080647 0.14222676
-0.19803087 -0.38214445 -0.4444149 -0.18022704 -0.06971633 -0.23407887 -0.035180844 0.23444378
-0.026989035 -0.23110993 0.15492444 -0.23047958 -0.28561035 -0.056434404 0.1886066 -0.06783327
-0.104301855 0.24348149 0.22909488 -0.0994778 0.21512915 0.33967024 -0.49116197 0.012439467
0.049137425 0.28790027 -0.01980006 0.08085574 0.059719577 0.16217394 -0.10057504 0.30517328
-0.33011657 0.019371683 0.17106527 -0.2836404 -0.19497694 0.040429547 0.21512125 0.13151935
0.12987602 0.093509704 -0.069960155 0.006940877 0.25810003 0.13331331 -0.12766238 0.08696427
-0.2967319 0.069081865 -0.037376016 0.18840386 0.17437027 0.1257968 -0.050110187 -0.11393785
0.09528066 0.115059 0.097572416 -0.13026641 0.4217144 -0.093231685 0.23067544 0.042066198
-0.035673734 -0.22740565 0.2426203 0.13233681 0.17258935 -0.1866529 0.033177465 -0.03128815
0.13575184 0.044097695 0.31382558 0.33873257 -0.15956998 -0.050645526 0.31365296 -0.008793749
0.1134933 0.08495879 0.062350567 -0.04458942 0.02619773 -0.24992542 0.06789588 0.18628868
0.17319559 -0.02278152 0.18935762 -0.22664735 0.1161611 0.023196664 -0.24829896 -0.07052244
-0.07868851 0.17713116 -0.1218445 -0.16913427 0.12010821 0.01594415 0.06862289 0.07824135
0.19756728 -0.1315274 0.07052941 -0.078668855 -0.07598234 0.024614226 -0.009588746 -0.19320546
-0.11399848 0.03519744 0.02243679 -0.14310156 -0.019699544 -0.04837263 0.03150358 0.004247047
-0.16867352 -0.0027311444 -0.1679751 0.06393371 0.08139776 -0.12749234 -0.09293908 -0.19885042
-0.031271435 0.399305 0.15993617 -0.04524129 -0.05694449 0.23876311 -0.10064282 0.39896798
0.047392875 -0.22349371 0.074442014 0.061446138 -0.33990368 -0.24234761 0.09440877 0.025158837
0.09535207 0.0960886 0.026447015 0.15660661 0.13655664 0.1707143 0.373019 -0.087165326
-0.013833005 -0.13282742 0.088839844 0.12320881 0.07616203 -0.09339349 -0.15880325 -0.024956044
0.022327613 -0.0388487 -0.13596828 -0.27225733 -0.046693012 -0.19199915 0.021096043 -0.014004861
-0.0047963285 -0.037322007 -0.11978912 -0.042643823 -0.15151346 -0.058538467 -0.07244023 -0.15398803
-0.107661806 -0.34214967 0.16317242 0.13840382 -0.1738157 -0.026463684 -0.065405585 -0.1910572
0.24357647 0.15364216 -0.09487093 -0.1101536 -0.034087345 -0.17820278 0.083365306 -0.012474845
0.055109452 -0.05518678 0.0273984 -0.266646 0.100600444 -0.18513484 -0.08144593 -0.32334697
0.0786419 -0.047758818 0.009453642 0.06926585 -0.35363108 -0.1749513 -0.102304466 -0.21380052
0.07797176 0.067484654 -0.0767765 -0.3526092 -0.0022614172 -0.2324848 -0.2785651 -0.012201812
00000000: 0fb9 1abe 3d62 52be 7a76 69be 2e46 c5bc
00000010: 6425 f23d 9885 1e3d 9bfb aebd 3506 a0bb
00000020: 8d5c 8dbd 291e 5f3c 272b 34be cbc4 e2bd
00000030: 84d4 04bd 39d7 40bc 9b90 9d3c 2309 32be
00000040: dad3 cb3d 41b9 7cbd bbf7 263d 66ec 35be
00000050: 975e ee3c c58f 8cbd 4585 39bd a55e a7be
00000060: d9cc cc3d 8136 95bd 1adc c0bd f1f5 42be
00000070: 08d3 8f3d 82e1 5d3b d72e 023e 438a 1abe
00000080: a442 40be 077f 1fbe b484 64be 0ca6 8c3e
00000090: 9d04 93be 389c a5bd ea0e 553e e4a3 113e
000000a0: 9bc8 4abe 70a8 c3be 5a8a e3be 708d 38be
000000b0: 6fc7 8ebd 5fb2 6fbe ca19 10bd 0812 703e
000000c0: 1c18 ddbc 15a8 6cbe 83a4 1e3e d702 6cbe
000000d0: 853b 92be c327 67bd 1722 413e 2bec 8abd
000000e0: 369c d5bd 3653 793e d997 6a3e 04bb cbbd
000000f0: d14a 5c3e 42e9 ad3e 9579 fbbe e8ce 4b3c
00000100: 5344 493d aa67 933e bc33 a2bc b297 a53d
00000110: 849c 743d ed10 263e 49fa cdbd ac3f 9c3e
00000120: 0a05 a9be 5db1 9e3c bc2b 2f3e 5139 91be
00000130: 09a8 47be 7499 253d bf48 5c3e 02ad 063e
00000140: 38fe 043e 0482 bf3d 4547 8fbd 4c70 e33b
00000150: b025 843e 4983 083e edb9 02be 531a b23d
00000160: 3eed 97be cb7a 8d3d 9817 19bd f1ec 403e
00000170: 1f8e 323e e0d0 003e 5740 4dbd 3f58 e9bd
00000180: 8222 c33d 0ea4 eb3d 0cd4 c73d 8f64 05be
00000190: f3ea d73e 41f0 bebd 2f36 6c3e 9b4d 2c3d
000001a0: 9f1e 12bd 07dd 68be 7571 783e 4d83 073e
000001b0: 43bb 303e f021 3fbe 18e5 073d 0128 00bd
000001c0: 8802 0b3e c99f 343d bfad a03e 5b6e ad3e
000001d0: 5066 23be af71 4fbd 1f97 a03e a813 10bc
000001e0: 2d6f e83d e0fe ad3d 4f63 7f3d 65a3 36bd
000001f0: 9f9c d63c 73ec 7fbe ff0c 8b3d 76c2 3e3e
00000200: 2f5a 313e 4fa0 babc f7e6 413e 3e16 68be
00000210: dfe5 ed3d ee06 be3c 1542 7ebe 126e 90bd
00000220: 7127 a1bd df61 353e 9c89 f9bd 8931 2dbe
00000230: 4bfb f53d 4e9d 823c 288a 8c3d 003d a03d
00000240: 144f 4a3e 1eaf 06be b971 903d 231d a1bd
00000250: a19c 9bbd c6a3 c93c 1e1a 1dbc a7d7 45be
00000260: 0978 e9bd 312b 103d 5ccd b73c 3789 12be
00000270: f060 a1bc 6122 46bd e609 013d d02a 8b3b
00000280: c0b8 2cbe 00fd 32bb aa01 2cbe adef 823d
00000290: deb3 a63d 5a8d 02be d856 bebd 729f 4bbe
000002a0: 7a16 00bd b471 cc3e 4fc6 233e ee4e 39bd
000002b0: a03e 69bd 517e 743e d31d cebd 8845 cc3e
000002c0: 081f 423d 89db 64be 0e75 983d f2ae 7b3d
000002d0: db07 aebe f929 78be 6359 c13d e819 ce3c
000002e0: f247 c33d 1aca c43d 69a7 d83c 7c5d 203e
000002f0: 81d5 0b3e bbcf 2e3e 59fc be3e bc83 b2bd
00000300: d4a3 62bc e903 08be aaf1 b53d e754 fc3d
00000310: d7fa 9b3d 1645 bfbd 529d 22be 9e70 ccbc
00000320: 66e8 b63c d01f 1fbd 453b 0bbe 5065 8bbe
00000330: 2c41 3fbd 6d9b 44be 9cd1 ac3c a574 65bc
00000340: 852a 9dbb f6de 18bd 0054 f5bd 4aab 2ebd
00000350: 5826 1bbe 08c6 6fbd 8b5b 94bd 0aaf 1dbe
00000360: cb7d dcbd 3e2e afbe ac16 273e bbb9 0d3e
00000370: befc 31be 5eca d8bc 5df3 85bd 80a4 43be
00000380: 1c6c 793e 5f54 1d3e b14b c2bd 3698 e1bd
00000390: 2c9f 0bbd ca7a 36be 6ebb aa3d 4b63 4cbc
000003a0: 73ba 613d 880b 62bd 9c72 e03c d385 88be
000003b0: 9b07 ce3d fd93 3dbe 20cd a6bd bc8d a5be
000003c0: 010f a13d c09e 43bd 73e3 1a3c 41db 8d3d
000003d0: 220f b5be 6f26 33be 0185 d1bd 86ee 5abe
000003e0: a8af 9f3d 6535 8a3d ff3c 9dbd 3189 b4be
000003f0: 4934 14bb 7f10 6ebe 16a0 8ebe 1cea 47bc
