models/mic_classifier/layers/WittenAMPRegressor_gru_b/2_weight.npy (npy, 896 bytes, 1 tensors)

array f4 [192]
000000 8a 64 16 3e 33 32 16 3d b9 a4 d9 bc c8 ef 7a 3d
       0.1468679 0.036668967 -0.026567804 0.06126383
000010 1f 98 8a bd d6 ec 5a 3d ce 52 eb 3d 2e 39 92 3d
       -0.06767296 0.05344852 0.11490403 0.071398124
000020 64 ac 2b 3d 77 75 06 bd 5d 0c 49 3d a4 d9 f7 3c
       0.04191245 -0.032826867 0.049084056 0.030255146
000030 88 3d c3 3d 9c d3 57 bd da c2 d7 3d d6 51 b5 bb
       0.095332205 -0.05269204 0.10535212 -0.0055334372
000040 01 1d a6 bc cb 2a b7 bb 2c 79 4f be 25 f4 c9 3d
       -0.020277502 -0.005589818 -0.20261067 0.0986102
000050 34 1c 32 bd 52 43 06 3e 2f 42 9a 3c 46 41 07 be
       -0.043483928 0.13111618 0.018830387 -0.13208494
000060 37 99 89 bd dc 50 11 bd 44 52 de bd 73 97 b4 3d
       -0.067186765 -0.035477504 -0.10855535 0.08817949
000070 6a c6 ea 3d 5c bd a4 3a d3 d1 92 3d 19 2e f0 bd
       0.11463626 0.001256864 0.07168927 -0.117275424
000080 fa 0b fe bc 7b 29 a5 3d e6 c9 84 3c 98 1d 14 3e
       -0.03101157 0.080645524 0.016209554 0.14464414
000090 6f fd ea 3c 34 fe 0a 3d d3 da 26 3d 23 85 ee 3d
       0.0286853 0.033933833 0.04073603 0.116464876
0000a0 f6 43 17 bd 85 bc 02 bd 70 c7 1d bc 48 63 da 3b
       -0.036930047 -0.031918067 -0.009630069 0.0066646673
0000b0 a6 38 20 3d 3c d3 d6 3c d6 a8 6a 3e 7c 7f d3 3d
       0.039116524 0.026223771 0.22915968 0.1032705
0000c0 fa bf ca 3c 18 e4 b9 bc 83 ea f1 3c 3f 0c 38 ba
       0.024749745 -0.022691771 0.02953077 -0.0007020868
0000d0 bc aa e5 bd 9b 96 c6 3d 5a ad 2b 3e b2 a1 f3 3d
       -0.112142056 0.096966945 0.16765347 0.11896075
0000e0 8d 0b c6 bc 84 c8 99 bc eb 0d 18 3e a2 63 01 bc
       -0.02417543 -0.018772371 0.1484906 -0.0078972895
0000f0 a6 cf d7 3b 52 6b 72 3d 95 81 8e 3d b0 96 71 bd
       0.006586033 0.05918438 0.069583096 -0.058981597
000100 97 68 e4 3b aa 97 09 bc da e0 de bc 12 ca 96 bd
       0.006970476 -0.008397976 -0.027206827 -0.073627606
000110 2c 01 36 be d6 35 1a bd 6f f3 18 3d 39 de a1 bb
       -0.17773885 -0.037649 0.03734153 -0.004939821
000120 cc 71 df bd f1 60 ed bc 94 37 a8 bd 9b 1a ab bc
       -0.10910377 -0.02897689 -0.08213726 -0.02088671
000130 f0 f3 0a 3c 54 c0 cd bd 97 63 89 3d 2a 1b c0 bc
       0.008481011 -0.10046449 0.067084484 -0.023450453
000140 15 58 14 bd 51 07 ac 3c be 45 3d bd 2a a1 b0 bd
       -0.036216814 0.020999582 -0.04620909 -0.086244896
000150 62 a7 49 be 64 22 ee bd 55 46 f5 bb bf 5d 8d 3c
       -0.19692758 -0.11627653 -0.007485191 0.017256616
000160 c2 48 92 3b 2a 53 2f 3c ff 1f e2 bd 7b 6d 84 bb
       0.00446424 0.01070098 -0.11041259 -0.0040413714
000170 28 9b 94 3d 12 72 9c bd 4f 6e b0 bd 7b 33 f2 3c
       0.07256156 -0.07638945 -0.0861479 0.029565563
000180 80 c7 29 3d 92 83 e5 ba 38 d6 19 be 87 81 e3 3c
       0.041450024 -0.0017510524 -0.15023124 0.027771724
000190 cf 19 b8 bd 2b ae 25 3d 6a 6b 1f bd 81 83 42 bd
       -0.089892976 0.040449303 -0.038920797 -0.047488693
0001a0 8e e6 1e be 74 d7 21 be 8a 84 27 3c e6 61 fb bd
       -0.15517637 -0.15804845 0.010224471 -0.12274532
0001b0 c1 0e 79 bd f5 68 33 be 40 3c 9a 3d 80 e2 0d 3e
       -0.060805086 -0.17520507 0.07531023 0.13855934
0001c0 27 a0 0e 3c 1d ee cb bd 93 e3 bb bd 1e bd d7 bd
       0.0087051755 -0.09957526 -0.09174266 -0.10534118
0001d0 ae b8 a5 3d 66 11 6b bd ea 11 1c bd f7 62 c0 3c
       0.080918655 -0.05738964 -0.03810302 0.02348469
0001e0 52 18 95 bd 5c 14 ad bd 7d 57 da 3d 38 5a 82 3d
       -0.07280029 -0.08451149 0.10661218 0.06364864
0001f0 dd 56 3a bd 54 a7 b8 3d 6c 91 a1 3d 3e eb 10 be
       -0.045492996 0.0901629 0.07889065 -0.14152238
000200 b6 95 4f 3d 3c c3 a8 bc c5 20 81 3d be bd ab 3a
       0.050679885 -0.020600908 0.063050784 0.0013102812
000210 a6 de 58 3a 62 56 12 3d c1 fc 09 bd 6f 2a 89 3b
       0.00082729233 0.035726912 -0.03368831 0.0041859667
000220 31 e4 3f 3d 9d 38 47 3d ce e0 16 bd 2b 5a f6 ba
       0.04684848 0.048637975 -0.036835484 -0.0018795183
000230 48 0e 00 3c 2e 4d e8 3c 02 06 67 3d d8 3a 6a 3c
       0.007815905 0.028357115 0.056402214 0.014296256
000240 c2 98 95 3c dc 2d 1e 3d 83 07 14 3d 2f 8c 29 3d
       0.018261317 0.038617954 0.036139976 0.041393455
000250 5a f1 b1 bc 26 ec 27 3d a6 41 65 bc 5e 11 0b bd
       -0.02172153 0.040996693 -0.013992703 -0.03395211
000260 91 93 87 3d 6a 7a 4e 3d d3 f1 e7 bc ad ed 67 bc
       0.06619943 0.050409712 -0.028313553 -0.014155787
000270 14 e5 31 3d 76 4e 46 3c c3 09 a8 bb d5 cd c2 3c
       0.043431357 0.0121036675 -0.005128117 0.023779789
000280 67 ef 3a bc ae 64 0a 3c 54 6b 0e bc 1b e0 f9 3a
       -0.011409617 0.0084468555 -0.008692581 0.0019063981
000290 fa 23 47 bb 93 37 47 bd 6a d0 d7 bb 74 a1 00 bb
       -0.0030386434 -0.048636984 -0.006586124 -0.0019627484
0002a0 c6 3d 6b 3c 6e a2 61 3d f6 53 16 3d dd 98 eb 3c
       0.01435799 0.055086546 0.036701165 0.028759414
0002b0 25 69 af bc 42 ec d3 3c 61 64 3c bd 9e 56 1c 3d
       -0.021412442 0.025869492 -0.045994166 0.038168542
0002c0 4e 20 d8 3c f5 fb 21 3d e9 db 8b 3c 53 26 ae 3c
       0.026382592 0.039546926 0.017072635 0.021258509
0002d0 eb d6 41 bb 9e 91 31 bd 5b b8 a7 3c 85 ff 43 3d
       -0.0029577564 -0.043351762 0.02047365 0.047851104
0002e0 b8 73 d8 3c cd 88 44 bc eb a4 d6 bc 3a d8 bc bc
       0.026422366 -0.0119955065 -0.026201686 -0.023052324
0002f0 04 1e 56 3c 30 ed 2f bc ec b1 ee 3c 8d f7 07 bd
       0.01306868 -0.010737702 0.029137574 -0.033195067
