models/mic_classifier/layers/WittenAMPRegressor_gru_b/3_weight.npy (npy, 98432 bytes, 1 tensors)

array f4 [128, 192]
00000000: 6360 b5bd ceb5 443e 74f4 fbbd a6b5 dcbb
00000010: 2866 a33d 85d2 513e 7c32 e13b b1c5 003f
00000020: d972 263e 0330 1b3d 7c21 1b3e faec 29be
00000030: e26e 90bc 89c0 8a3d 5845 0dbe 4281 cf3e
00000040: a1d0 483d 3c05 863e 0511 01be a15b 45be
00000050: 4287 233d a1f8 3a3c 1af4 4c3d 2cfe 873e
00000060: 643d 21bd 3e76 7c3c 48c3 82bd 42f6 c13c
00000070: 5e7b 2d3e a4ff 28be 0bfc 083e 757e 823c
00000080: bc5b 7e3d 26f3 5d3e ce8f 5dbd b21d 80be
00000090: c0ef ba3d 3535 f7bb 0efe 663e ae8b 303e
000000a0: 5cc7 60bc 44d5 a1bd 71c3 cb3d 6ce6 103c
000000b0: 6a6c 6c3e 41cc 0b39 640c 9bbe 247d 6e3c
000000c0: 700f 1dbd de69 243d 8f1c d63d f6f8 e53d
000000d0: c1ba 203e e93c 34be a2c3 e9bd 8056 1d3e
000000e0: 49dd a03e 8df2 4dbe ac9c f3bd aa54 c03e
000000f0: 4466 88bc 0d44 493c a993 613e f800 613c
00000100: fbb6 bdbe 1750 62bd b546 1a3e 51d4 9cbe
00000110: 9d4c 14be 88ba f63d 30b0 b0bd ac55 0f3f
00000120: 48df ab3d 6978 093c a8e2 3cbd 0871 8d3e
00000130: 8b94 6bbe 924c b6be 4af1 df3c 3611 ac3e
00000140: d13c 913e da88 723a df21 5bbe 9455 8fbe
00000150: 3e9e b6bd 40a4 32bb d7f1 363e 4c84 ef3e
00000160: 8134 adbe 0bb1 27be a36b 35be b00f 43be
00000170: d6cb 80be 3a15 1cbe fe5d 01bd b13c 20bd
00000180: 2e3e f33d 5aa3 6ebe 1ba3 233e c286 52be
00000190: 4cef 123d 6108 dabd 1549 8e3d 5096 b4be
000001a0: de84 333e 277b f1be e82a f6be 320b d93e
000001b0: 866b 8dbd aa24 49be 77d5 2e3e 447e 15be
000001c0: 4273 0abe 8ce5 82be b87c 8abe fc72 64bc
000001d0: e205 99be dd1d 443d 635e 1abd de97 fb3d
000001e0: ee9c 053e 28a4 8ebe daae 923e 9100 76bd
000001f0: f623 8cbe e0e8 d7bd 556f 1dbd 5a91 0039
00000200: 0a4b 2b3c a18f 37bd 4a75 0ebe 0e39 15be
00000210: b5dc b63d f960 ed3d 3501 a1bd 3541 023e
00000220: 6cab 3bbe da73 bf3d e26b 09be be95 a13d
00000230: 0087 133d 8b4f 093d f899 0b3e 9933 acbd
00000240: 45ff 523e 7e6f 3e3e 7209 dcbd a8dc 7dbe
00000250: d446 13bd e5e1 d33d bde8 023e b850 953d
00000260: 2d78 51be a6c1 babd c1b7 11bd 4f80 6e3d
00000270: e965 4cbc 617e 0d3e 369a 3abc 49ff 8d3c
00000280: 59ed b93c 72f1 2b3d c236 d4bd ffa8 d4bd
00000290: d37b a03b 2761 e5bb 8976 6bbd d597 3bbe
000002a0: 648c 9cbd 5934 b9be 1108 8cbd 9d15 32be
000002b0: 16d3 663e 7645 113d 602b 0bbd 6c72 26bd
000002c0: 6440 f23b 73d7 d33d 351b e03d 0a37 ec3c
000002d0: f422 2f3e 394d 38bd 3abd f6bc 9212 9abd
000002e0: ca18 0a3e 40f7 353e 910d 293e 60da 95be
000002f0: 1912 d33d 7ecb 86bd 8060 913e 5cf0 91bd
00000300: 31fa 9bbd fc44 893e c70b 23be 1c9b f0bd
00000310: 104e bfbc ddfe 583e 6cbf 6d3d 21dd ab3e
00000320: 068e f33d 3f30 ef3c b3d8 733c 61eb e23d
00000330: 1e02 283e f70d 003e 3261 16be f808 813e
00000340: d857 d63d 4785 093e bf04 39be 882c 31bd
00000350: 964d bdbd 3363 c9bd 13e1 e1bc db76 3e3c
00000360: 3579 f43d d5ff 27bd f6bf 4a3d 79b8 c53d
00000370: 96a6 a5bd 4dc0 0c3e ac0f b03d 4e4d 18be
00000380: 3aca 11bd b31d 4cbd baa7 7c3c 35f4 c03e
00000390: b207 04bc c09d 993e aad5 b2bd c628 e63d
000003a0: 9442 b23d 4b11 9b3d a39c 763e 8133 7bbc
000003b0: b1a2 3d3e 8d96 2abd 9d31 fc3d 5f0a cf3c
000003c0: 92e4 48bc f007 ba3b e60b 5ebd 2179 e13d
000003d0: 741a b93d 72c9 12be 9a02 b53b bde2 003e
000003e0: b726 c6bd 4508 393d f88b 77be b2ac be3e
000003f0: 3819 a53d bbd5 0bbd 66b8 c43c 9da3 f2bd
-0.08856275 0.19209978 -0.12302485 -0.0067355214 0.07978469 0.20490463 0.0068724733 0.50301653
0.16254748 0.037887584 0.15149492 -0.16594306 -0.017630998 0.067750044 -0.13795984 0.40528303
0.04902709 0.2617587 -0.12604149 -0.19273235 0.039923914 0.011411817 0.05003748 0.26561105
-0.039365187 0.0154090505 -0.06384903 0.023676995 0.16941592 -0.16503769 0.13377397 0.01592944
0.062099203 0.21674785 -0.05409222 -0.25022656 0.0912776 -0.0075441846 0.22557852 0.17240784
-0.013719406 -0.07902005 0.09949387 0.008843999 0.23088232 0.00013332164 -0.3028289 0.014556203
-0.0383448 0.040140025 0.10454666 0.11229126 0.15696241 -0.1760136 -0.11414267 0.15365028
0.31418827 -0.20112057 -0.11895117 0.37564594 -0.016650327 0.012284291 0.22028984 0.013733141
-0.37053666 -0.05525216 0.15066035 -0.30630735 -0.1448235 0.12047297 -0.08627355 0.559901
0.08392197 0.008390524 -0.046114594 0.27625299 -0.23005883 -0.35605294 0.027336735 0.3360688
0.28366712 0.000925196 -0.2139964 -0.27994978 -0.08916901 -0.0027258545 0.17865692 0.46780622
-0.3382912 -0.1637613 -0.17716841 -0.19048953 -0.25155514 -0.15242472 -0.03158378 -0.03912038
0.11877094 -0.23304501 0.15980189 -0.20559219 0.035872743 -0.106461294 0.06947533 -0.3527093
0.17531154 -0.4716427 -0.4807961 0.42391354 -0.06905274 -0.19642892 0.17073618 -0.14598948
-0.1352053 -0.25565755 -0.27048278 -0.01394343 -0.298873 0.047880042 -0.03768767 0.12284826
0.13048145 -0.27859616 0.28649026 -0.060059134 -0.27371186 -0.10542464 -0.038436253 0.00012261179
0.010454902 -0.04481471 -0.1391193 -0.14572546 0.08928815 0.11590762 -0.07861558 0.12720187
-0.18327111 0.09348269 -0.1342006 0.07889889 0.036017418 0.033523124 0.13632953 -0.08408279
0.2060519 0.18597218 -0.10743989 -0.24791205 -0.03595622 0.1034582 0.12784095 0.072907865
-0.20456 -0.09118967 -0.035575632 0.058227833 -0.012475469 0.13817741 -0.011389306 0.017333644
0.022696184 0.041978307 -0.10362007 -0.10383796 0.0048975735 -0.007000107 -0.05748609 -0.18319638
-0.07643965 -0.3617275 -0.06837476 -0.17391057 0.2254146 0.035466634 -0.033976912 -0.040636465
0.00739293 0.10343828 0.10942689 0.028834838 0.17103177 -0.04499552 -0.030119527 -0.07523073
0.13486019 0.177701 0.16509081 -0.2926817 0.10306186 -0.06581782 0.28393936 -0.07125923
-0.076160796 0.26810443 -0.15922461 -0.11748335 -0.023352653 0.21190973 0.058043882 0.33567145
0.11892323 0.02919781 0.014883208 0.11080051 0.16407058 0.12505327 -0.14685515 0.25202155
0.104659736 0.13429748 -0.18068217 -0.04325536 -0.09243314 -0.09833374 -0.027573144 0.011625017
0.11937181 -0.041015465 0.049499474 0.09654326 -0.08088414 0.13745232 0.08596739 -0.1487324
-0.03559325 -0.04983301 0.0154208485 0.37686315 -0.008058475 0.30003166 -0.087321594 0.11238246
0.08704105 0.07571658 0.2408319 -0.015332104 0.18519093 -0.041647483 0.123141505 0.0252735
-0.012261527 0.0056772158 -0.054210566 0.11009432 0.09038249 -0.14334658 0.005523992 0.12586494
-0.09675353 0.045173902 -0.24174488 0.3724113 0.08061451 -0.034139376 0.02401371 -0.11847613
