models/mic_classifier/layers/WittenAMPRegressor_gru_b/4_weight.npy (npy, 49280 bytes, 1 tensors)

array f4 [64, 192]
0	0xbd4790b7	-0.048721995
1	0xbd816a96	-0.06319158
2	0xbf071111	-0.52760416
3	0x3d4487f2	0.04798121
4	0xbdde5b0f	-0.10857212
5	0x3eacb224	0.3372966
6	0xbd72b97b	-0.05925892
7	0x3e21a1eb	0.15784423
8	0xbc90fbc2	-0.017698172
9	0xbe2c47af	-0.1682422
10	0x3de7271b	0.11286756
11	0x3e638c65	0.22221525
12	0xbc1f31a4	-0.009716425
13	0xbe885fb2	-0.2663551
14	0xbe82142a	-0.2540601
15	0xbe3fb07b	-0.18719666
16	0x3e73eaad	0.2381999
17	0xbdf20af2	-0.11818494
18	0xbe83c700	-0.25737762
19	0xbe46f309	-0.19428648
20	0xbda759ed	-0.08171449
21	0x3cb58aea	0.022160966
22	0xbe32a815	-0.1744693
23	0xbe5fc631	-0.21852948
24	0xbe5b030b	-0.2138788
25	0xbd25b8b4	-0.04045935
26	0xbe0344a5	-0.12819155
27	0xbe839910	-0.25702715
28	0xbe295d38	-0.16539466
29	0xbcc90937	-0.024540527
30	0xbe089788	-0.13339055
31	0xbe2e8aac	-0.17045087
32	0xbd5f4d97	-0.054517355
33	0xbe3edc6f	-0.18638776
34	0xbe6db8bd	-0.23215003
35	0xbe1f653d	-0.15565963
36	0xbd2740ab	-0.040833157
37	0x3d922c35	0.07137338
38	0xbea5527b	-0.3228949
39	0x3e807aa3	0.25093564
40	0xbd8bc784	-0.06825164
41	0xbe6c04f6	-0.23048767
42	0xbdd0ba70	-0.1019181
43	0xbda412ee	-0.08011423
44	0xbb1b8286	-0.002372892
45	0x3dc584b5	0.096444525
46	0x3dc6783a	0.096909
47	0xbba682b8	-0.005081501
48	0xbe22d990	-0.15903306
49	0xbe054b1b	-0.13016932
50	0xbdcdb6fc	-0.10044667
51	0xbe03300c	-0.12811297
52	0xbdd96f09	-0.106168814
53	0xbe2d1cf6	-0.16905579
54	0xbd961bcf	-0.07329523
55	0xbe2d79d9	-0.16941012
56	0xbe048cfd	-0.12944408
57	0xbe02c055	-0.12768681
58	0xbe30f56a	-0.17281118
59	0x3d9c94a8	0.076455414
60	0x3d8daf7e	0.06918238
61	0xbe495863	-0.19662623
62	0x3e89c5b3	0.26908645
63	0xbd793e97	-0.060850706
64	0x3d1d7dfd	0.03845023
65	0xbd841484	-0.064492255
66	0x3dd5fd01	0.10448647
67	0x3dbbc24c	0.091679186
68	0xbd755462	-0.059894927
69	0xbd5f640b	-0.054538768
70	0xbe071e14	-0.13195068
71	0xbed596e2	-0.41716677
72	0x3e000e90	0.12505555
73	0xbdb6c47d	-0.08924196
74	0xbe82129c	-0.25404823
75	0xbda92b29	-0.08260185
76	0x3d93f395	0.07224194
77	0x3db18d21	0.08669496
78	0xbdc5fde5	-0.09667567
79	0x3dd62335	0.10455934
80	0xbc636a64	-0.013880346
81	0xbe90689d	-0.28204814
82	0x3e2d0968	0.1689812
83	0x3de69e2c	0.11260638
84	0xbe54d64c	-0.20784873
85	0x3dbbaa47	0.09163337
86	0x3dd1f873	0.10252466
87	0x3e2bcdf9	0.16777791
88	0x3d12da22	0.03585256
89	0x3db00e50	0.0859648
90	0x3baa4d16	0.0051971776
91	0x3d549bec	0.05190651
92	0x3d33620b	0.043794673
93	0x3d08eb38	0.033427447
94	0x3e3bf423	0.1835485
95	0x3ee58d0b	0.4483417
96	0x3d96cef1	0.0736369
97	0xbe8de074	-0.27710307
98	0x3e58caf7	0.21171175
99	0xbd9ef039	-0.077606626
100	0xbdf49edc	-0.119443625
101	0xbe5d5e7a	-0.21618071
102	0xbe5d09ee	-0.21585819
103	0xbd0e4bc7	-0.034740236
104	0x3d0339e5	0.032037634
105	0x3dd5cc19	0.10439319
106	0xbca8e104	-0.020615108
107	0xbd996305	-0.074895896
108	0xbec73ea0	-0.38914967
109	0x3d8e99ec	0.06962952
110	0xbdd487b2	-0.10377444
111	0x3e1bdf39	0.15221871
112	0xbd8de90b	-0.06929215
113	0x3e088839	0.13333215
114	0xbe05b4cb	-0.13057248
115	0xbd49ebbb	-0.049297076
116	0xbe657610	-0.22408319
117	0xbc80e680	-0.015734911
118	0xbd1015f5	-0.03517719
119	0xbe5746d4	-0.21023113
120	0x3accb796	0.0015618678
121	0xbafb499c	-0.0019171718
122	0xbe9e3f8f	-0.30907866
123	0xbd6384c8	-0.055546552
124	0x3dcae090	0.09906113
125	0x3d42e9ba	0.04758618
126	0xbe746364	-0.2386604
127	0x3d8aa399	0.06769485
128	0xbe448c2f	-0.19194101
129	0x3cd99302	0.026559357
130	0x3e3674ce	0.17817995
131	0xbd2e74aa	-0.04259173
132	0xbc7585d9	-0.014985525
133	0x3dcb91d6	0.099399254
134	0x3db53921	0.08848787
135	0x3decd85a	0.11564703
136	0x3e3b732a	0.1830565
137	0x3cd73056	0.026268166
138	0x3b9e4f8a	0.004831259
139	0xbda8e512	-0.08246817
140	0xbe150fc1	-0.14556791
141	0xbe01b428	-0.1266638
142	0xbe332c59	-0.17497386
143	0x3d7f5728	0.062338978
144	0xbc1c6323	-0.00954512
145	0xbc854ddf	-0.016272483
146	0x3dcac673	0.099011324
147	0x3d517f0a	0.051146545
148	0xbdeffcc2	-0.117181316
149	0x3c6fdc62	0.014639946
150	0x3c84daba	0.016217578
151	0x3d68dbef	0.05685037
152	0x3d82fb6c	0.06395611
153	0x3e658ecb	0.22417752
154	0x3e35ad90	0.1774199
155	0xbe10e89b	-0.14151232
156	0xbdf2612b	-0.118349396
157	0xbe691fd5	-0.22766049
158	0x3eab58b6	0.3346612
159	0x3e14281a	0.14468423
160	0x3e1f92bd	0.1558332
161	0xbd99397b	-0.07481667
162	0xbc860393	-0.016359126
163	0xbcdbea71	-0.026845189
164	0x3d80fe5e	0.06298517
165	0xbd50ffcb	-0.051025193
166	0xbe4b2485	-0.1983815
167	0xbd66413d	-0.05621456
168	0xbd442042	-0.047882326
169	0x3e4a0aaa	0.1973063
170	0x3dcf3c80	0.10118961
171	0x3e0e133e	0.13874528
172	0xbdcdf3f1	-0.10056294
173	0x3dbb6288	0.09149653
174	0x3db2ea62	0.08736111
175	0xbe2886bc	-0.16457647
176	0xbd949659	-0.07255239
177	0xbdbfb94f	-0.09361517
178	0x3e79a81e	0.24380538
179	0x3d667f15	0.05627354
180	0x3e17bb20	0.14817476
181	0xbe94153a	-0.28922445
182	0xbda508b4	-0.080583006
183	0x3da42d4b	0.080164514
184	0xbe511cad	-0.20421095
185	0xbe312d51	-0.17302443
186	0x3d0c2b3b	0.034220915
187	0xbdf39726	-0.11894064
188	0x3ca62176	0.020279627
189	0x3dc147de	0.09437536
190	0x3e10089a	0.14065781
191	0xbd1d1232	-0.03834743
192	0xbe2afb36	-0.16697392
193	0x3d85d3c9	0.065345354
194	0xbd37890f	-0.044808444
195	0x3e194c4a	0.14970508
196	0xbd632529	-0.05545536
197	0xbe1a4ae5	-0.15067632
198	0xbdaa7e77	-0.083249025
199	0xbdc121d4	-0.0943028
200	0x3d03bd90	0.032163203
201	0xbdd12715	-0.102125324
202	0x3e30d9fa	0.17270651
203	0xbe0d2665	-0.13784178
204	0xbd1761d5	-0.036958534
205	0x3d2950e7	0.04133692
206	0xbc4e413d	-0.012588796
207	0x3d037684	0.032095447
208	0x3df1f694	0.11814609
209	0xbd9304d2	-0.07178654
210	0x3ed5dc6b	0.41769728
211	0xbd95b396	-0.07309644
212	0x3df89f51	0.12139762
213	0x3e2dbd77	0.16966806
214	0xbc83ad36	-0.016073804
215	0x3bf16603	0.007366897
216	0xbd55e1fb	-0.052217465
217	0x3d19e4b8	0.03757164
218	0xbd057827	-0.03258529
219	0x3e0420ac	0.12903088
220	0x3e0131fd	0.12616725
221	0x3d58a443	0.052891027
222	0xbe0e5284	-0.13898665
223	0xbd7c40b8	-0.061585158
224	0xbdefeede	-0.11715482
225	0x3e2ed7ac	0.1707446
226	0xbd83a07a	-0.06427093
227	0x3db6d49a	0.08927269
228	0x3e3629b8	0.17789352
229	0xb7031f40	-7.815484e-06
230	0xbda757fb	-0.08171078
231	0xbe6e2448	-0.23256028
232	0xbd98f74d	-0.07469044
233	0xbd9e88c0	-0.07740927
234	0x3d9192a8	0.071080506
235	0x3e5df4fb	0.21675484
236	0x3e1854cd	0.14876099
237	0x3e922d4b	0.2855018
238	0x3e069541	0.13142873
239	0x3db820f2	0.08990659
240	0x3be42ec2	0.006963582
241	0xbbf05bc2	-0.007335157
242	0xbe51e762	-0.20498422
243	0xbdedb4eb	-0.11606773
244	0x3c8c07be	0.017093536
245	0xbd868411	-0.065681584
246	0xbd809923	-0.062792085
247	0x3da2992d	0.07939372
248	0xbd0b1b43	-0.033961546
249	0x3badb888	0.005301539
250	0x3e103dda	0.14086094
251	0xbe07f63c	-0.13277525
252	0x3cefb721	0.029262127
253	0x3da238db	0.079210006
254	0x3da50772	0.08058061
255	0xbdf1f344	-0.11813977
