models/mic_classifier/layers/WittenAMPRegressor_gru_b/5_weight.npy (npy, 896 bytes, 1 tensors)

array f4 [192]
0	0xbdf3464b	-0.11878642
1	0x3d7368fc	0.059426293
2	0xbd761386	-0.060077213
3	0x3d1ba253	0.0379966
4	0xbbe17318	-0.0068801753
5	0xbdc5a331	-0.09650267
6	0x3d4a141c	0.049335584
7	0x3dbe2767	0.09284859
8	0xbdca237e	-0.09870051
9	0xbdecc229	-0.115604706
10	0xbd6f223c	-0.058382258
11	0xbd65170b	-0.05593018
12	0x3d4dd339	0.050250266
13	0x3ceefb1a	0.029172469
14	0xbe1869d4	-0.1488412
15	0xbe46ee47	-0.19426833
16	0xbd75f724	-0.060050145
17	0xbe1870a7	-0.14886723
18	0xbd033f95	-0.03204306
19	0xbe003305	-0.12519462
20	0xbd371aa8	-0.044703156
21	0xbdafc6cd	-0.0858284
22	0xbe17252d	-0.14760275
23	0xbdd6dc67	-0.10491257
24	0x3d3d9118	0.04628095
25	0x3d839e6a	0.064266995
26	0xbccafeac	-0.02477964
27	0xbdac9e1a	-0.08428593
28	0x3d526a0f	0.051370677
29	0x3dd97575	0.10618106
30	0x3dc02f80	0.0938406
31	0xbc8f7be5	-0.017515132
32	0x3c715a52	0.014731007
33	0xbe46fb3b	-0.19431774
34	0xbdc07bb0	-0.093985915
35	0x3d880848	0.066422045
36	0xbe3b370c	-0.18282717
37	0xbdecb4c1	-0.115579136
38	0xbd3974b3	-0.04527731
39	0xbe25a390	-0.16175675
40	0x3d2fdccf	0.04293519
41	0xbd93a280	-0.07208729
42	0xbd0ea19b	-0.034822088
43	0xbdc8ad83	-0.0979872
44	0xbe8920a3	-0.26782712
45	0xbc92d844	-0.01792539
46	0xbcdde6c4	-0.027087577
47	0x3a27141c	0.0006373541
48	0xbcf53412	-0.029932056
49	0xbd8bb80e	-0.06822215
50	0x3da6b286	0.081395194
51	0xbcd1b854	-0.02560059
52	0xb73abfc0	-1.1131109e-05
53	0x3df5c827	0.12001067
54	0xbd40078f	-0.04688221
55	0x3dd4ff3e	0.10400246
56	0xbd7e0f00	-0.062026024
57	0xbd356243	-0.044283163
58	0xbda35b2d	-0.07976375
59	0xbe84a9dc	-0.25910842
60	0xbd06018b	-0.032716315
61	0x3da8bf59	0.08239622
62	0xbd8443de	-0.06458257
63	0x3d9647f0	0.0733794
64	0xbc9eb92e	-0.01937541
65	0x3d2ad30e	0.041705184
66	0x3c845e25	0.016158173
67	0x3cc5616f	0.024094312
68	0x3bc819b5	0.00610658
69	0xbe3b6434	-0.18299943
70	0xbd9a3f58	-0.07531613
71	0xbd88a0fa	-0.06671329
72	0xbdc7a796	-0.09748761
73	0xbd701f6f	-0.058623727
74	0x3d37ecef	0.04490369
75	0xbd307524	-0.043080464
76	0x3992a214	0.00027968048
77	0x3ccaee8b	0.02477195
78	0xbded54ef	-0.115884654
79	0xbe03e074	-0.12878591
80	0xbe21edf9	-0.15813436
81	0xbe3f258e	-0.1866667
82	0x3d9451e0	0.07242179
83	0xbbcf1db1	-0.006320678
84	0xbcc27942	-0.02373946
85	0xbdd594bb	-0.10428759
86	0xbe22daae	-0.15903732
87	0xbd50c8d0	-0.05097276
88	0xbd2b66dc	-0.04184614
89	0xbd10fdb3	-0.035398196
90	0xbe22160a	-0.1582872
91	0xbe3e04a9	-0.18556465
92	0xbc3bbee0	-0.011459082
93	0x3d234fed	0.039871145
94	0x3cb97568	0.022638991
95	0xbd933b2a	-0.07189019
96	0x3c1c766a	0.0095497165
97	0xbe71db8a	-0.23618904
98	0x3d3d2903	0.04618169
99	0xbd52fe00	-0.051511765
100	0xbcf7f620	-0.030268729
101	0xbc68eab4	-0.014216114
102	0xbe0bd05d	-0.13653703
103	0x3dc1b122	0.094576135
104	0x3d2f8652	0.042852707
105	0x3d405879	0.046959374
106	0x3d497b15	0.049189646
107	0x3a921012	0.0011143705
108	0xbd81b783	-0.0633383
109	0xbd804c9e	-0.062646136
110	0xbdbe97e4	-0.093063146
111	0xbd7bb661	-0.061453227
112	0xbd237864	-0.039909735
113	0xbdcd6806	-0.100296065
114	0xbbad9c9a	-0.0052982094
115	0xbcf11129	-0.029427128
116	0xbcaf4db4	-0.021399356
117	0x3d55ef3f	0.052230116
118	0xbc90727d	-0.017632717
119	0xbd3adb5f	-0.045619365
120	0xbd5a3b1e	-0.053279035
121	0xbe1997f5	-0.14999373
122	0xbd8248b2	-0.06361522
123	0x3db4ee0e	0.08834468
124	0x3dc0c6de	0.09412931
125	0xbc781892	-0.015142577
126	0xbe0153bc	-0.12629598
127	0x3bb10d83	0.005403222
128	0xbd660acf	-0.05616265
129	0x3bf2f180	0.007414043
130	0xbd010a2b	-0.031503838
131	0x3d7696d8	0.06020245
132	0xbcfc9cb6	-0.030836444
133	0x3d112e7b	0.035444718
134	0x3ccf7aee	0.025327172
135	0x3d9e29b8	0.07722801
136	0xbd208e3a	-0.039198138
137	0x3bc08259	0.0058749137
138	0xbca65d38	-0.020308122
139	0x3cb4f0c0	0.022087455
140	0x3c8e9fe7	0.017410232
141	0x3cc05b7a	0.02348112
142	0xbd0a7518	-0.033803076
143	0xbb552c18	-0.0032527503
144	0x3c0e2453	0.008675653
145	0x3c4a740b	0.012356768
146	0x3dce8408	0.10083777
147	0x3bab84ff	0.00523436
148	0x3d599897	0.053124037
149	0xbc91e880	-0.01781106
150	0x3c70b675	0.014691939
151	0xbc68ad1a	-0.014201427
152	0xbca8fdef	-0.020628897
153	0xbccf0d72	-0.025274966
154	0xbd0f2343	-0.034945738
155	0x3c9456ed	0.018107856
156	0x3cf7fe26	0.030272555
157	0x3c85027b	0.016236534
158	0xbb6950d8	-0.0035601165
159	0xbd77825a	-0.060427047
160	0x3b2ef751	0.0026697705
161	0xbc0b7123	-0.008510861
162	0x3c2d13e3	0.010563823
163	0xbcac829e	-0.021058377
164	0xbbf189d1	-0.0073711653
165	0xbd208784	-0.039191738
166	0x3c70432a	0.014664451
167	0x3d192c21	0.0373956
168	0x3c965efb	0.018355837
169	0x3c060a54	0.008181173
170	0xbd0eef8f	-0.03489643
171	0x3c0829ec	0.008310776
172	0x3d55246f	0.0520367
173	0x3d5c3516	0.053761564
174	0xbc403dee	-0.011733515
175	0x3c207fdc	0.009796109
176	0xbcad4401	-0.02115059
177	0xbd6958f5	-0.0569696
178	0xbd198cf5	-0.037487943
179	0x3908b65c	0.00013037905
180	0x3d12e738	0.03586504
181	0xbc4c89ed	-0.012484056
182	0xbc53e988	-0.012934096
183	0xbc9bdda9	-0.019026594
184	0x3da8ee8a	0.08248623
185	0x3bb96c20	0.0056586415
186	0xbc9c582c	-0.019085012
187	0x3c5c9de2	0.013465377
188	0xbd7b2c09	-0.061321292
189	0xbd1e6989	-0.038674865
190	0x3d3ae94e	0.045632653
191	0x3c2ac03b	0.010421808
