models/Basic/41/layers/VeltriAMPClassifier_embedding/0_weight.npy (npy, 10880 bytes, 1 tensors)

array f4 [21, 128]
0	0xbd035515	-0.032063562
1	0x3c4dd950	0.012564018
2	0xbd35d394	-0.04439123
3	0xbdb61a75	-0.08891765
4	0xbc951a2c	-0.018200956
5	0x3c5216af	0.012822791
6	0x3cf4e543	0.029894477
7	0xbda3d5ac	-0.07999739
8	0xbc5623cc	-0.013070058
9	0x3d53970d	0.051657725
10	0xbc33ff28	-0.010986127
11	0xbd301ba2	-0.042995103
12	0xbb39d9fe	-0.0028358693
13	0xbd627898	-0.05529079
14	0x3cc9b5a0	0.024622738
15	0x3d1dfe78	0.03857276
16	0xbd74d723	-0.059775483
17	0xbda48291	-0.08032716
18	0x3d39207d	0.045197
19	0xbccc3efe	-0.02493238
20	0x3c8fe359	0.017564462
21	0x3d133e96	0.03594836
22	0x3d87a975	0.06624118
23	0x3c71c204	0.01475573
24	0x3c473d3f	0.012160598
25	0xbcf4f22a	-0.02990063
26	0x3d04c27f	0.03241205
27	0x3d820043	0.06347706
28	0x3d8df9d9	0.0693242
29	0xbd0b4def	-0.03400987
30	0xbd34478b	-0.04401354
31	0xbc496a30	-0.0122933835
32	0x3c4999a6	0.012304699
33	0xbb9702f7	-0.0046085077
34	0xbb850922	-0.0040599266
35	0x3cc82c27	0.024435116
36	0x3d489e0b	0.048978847
37	0x3d46a001	0.048492435
38	0xbd213bfa	-0.03936384
39	0x3d0e6b97	0.034770574
40	0x3d469b8f	0.048488196
41	0x3d6cbcd3	0.057797264
42	0x3d2f5160	0.042802215
43	0x3d5a7f42	0.05334402
44	0xbd71c4f0	-0.059025705
45	0x3ba073cd	0.004896617
46	0x3cf66fde	0.03008264
47	0x3bfec8d0	0.0077754036
48	0x3da53e7d	0.08068559
49	0xbab3c674	-0.001371576
50	0x3caab79b	0.020839503
51	0xbbc0af40	-0.0058802664
52	0xbd8ecec7	-0.069730334
53	0x3d811722	0.0630324
54	0xbbb91f17	-0.005649458
55	0x3d54e8e0	0.0519799
56	0x3c3bd2ae	0.011463804
57	0x3d14bc08	0.036312133
58	0x3cbf297f	0.023335217
59	0x3d006ba7	0.031352665
60	0x3dc86582	0.09784986
61	0x3cffba8a	0.031216878
62	0xbba152f7	-0.0049232203
63	0x3cd87996	0.026425164
64	0xbd1c22ae	-0.03811901
65	0x3d0ab929	0.03386799
66	0x3d378b33	0.044810485
67	0x3d446635	0.047949035
68	0x3d78f78a	0.060782947
69	0x3d158754	0.036506012
70	0xbd134f6c	-0.035964414
71	0x3cdecb54	0.027196564
72	0x3d2500e4	0.040284052
73	0xbc898b07	-0.016789926
74	0x3ca790a7	0.020454718
75	0xba2c6b1d	-0.00065772404
76	0xbd955786	-0.072920844
77	0x3a8b5673	0.0010630622
78	0xbd75cce5	-0.060009856
79	0xbaefa74c	-0.0018284111
80	0xbdc68977	-0.09694188
81	0xbd80ffc1	-0.06298781
82	0xbd3fbe5c	-0.0468124
83	0x3da566f0	0.080762744
84	0xbcad1007	-0.021125806
85	0x3d1b3df9	0.0379009
86	0x3d6ae1f4	0.057344392
87	0xbcb257b4	-0.021770336
88	0xbc08253c	-0.008309659
89	0xbc3721e2	-0.011177512
90	0x3d857db1	0.06518114
91	0x3c209200	0.009800434
92	0x3d6e8d4a	0.058240213
93	0x3dc5aaa8	0.09651691
94	0x3ce5932b	0.028024277
95	0x3ca093f7	0.019601805
96	0xbdd4476f	-0.103651874
97	0xbd8b5944	-0.068041354
98	0xbc9f2610	-0.01942733
99	0xbd555a57	-0.052088108
100	0x3cd6686a	0.026172835
101	0xbcb2b86c	-0.021816455
102	0x3d9a0d27	0.0752204
103	0x3d622b71	0.05521721
104	0x3da118c1	0.078660496
105	0xbd700a0d	-0.058603335
106	0xbd14273f	-0.03617024
107	0x3d3a9461	0.04555166
108	0xbcd30601	-0.025759699
109	0x3c193571	0.00935112
110	0xbd88bf36	-0.066770956
111	0xbc2c2cd4	-0.010508735
112	0x3d061f5b	0.032744747
113	0xbcffa3da	-0.03120606
114	0x3d3619ab	0.044458073
115	0x3cda1e5d	0.026625806
116	0xbbffe95b	-0.0078098006
117	0xbd8df7ad	-0.06932006
118	0xbccd6d1d	-0.025076443
119	0x3ceba7e7	0.028766586
120	0xbbdf0d8d	-0.0068070353
121	0xbb9e2bf2	-0.004827016
122	0x3d57ff08	0.05273345
123	0x3db4cbed	0.08827958
124	0x3d42691a	0.047463514
125	0x3beb86ad	0.0071876855
126	0xbcac4dc6	-0.021033179
127	0x3cbe10d2	0.02320138
128	0x3b3b0506	0.002853693
129	0x3dfb04b5	0.12256757
130	0xbc8894b6	-0.016672473
131	0x3b90d428	0.0044198222
132	0x3db2f1a2	0.08737494
133	0x3e82f12e	0.2557463
134	0x3e7c07b0	0.24612308
135	0x3d12584b	0.035728734
136	0x3d72c25d	0.05926739
137	0xbda4e0ea	-0.080507115
138	0xbdbbb88c	-0.09166059
139	0x3c910d75	0.017706612
140	0xbdfc4a38	-0.123188436
141	0x3deb3833	0.114853285
142	0xbd1cb23c	-0.038255915
143	0x3dea3034	0.11434975
144	0xbd92e585	-0.071726836
145	0x3d6e9f00	0.058257103
146	0xbdbc3925	-0.09190587
147	0x3aab405a	0.0013065443
148	0x3dd4efb7	0.103972845
149	0xbd76a4d0	-0.06021577
150	0x3dae5348	0.085119784
151	0xbcfd37ea	-0.030910451
152	0x3e07e505	0.13270958
153	0xbdd273f8	-0.102760255
154	0x3d08bb25	0.0333816
155	0x3dea3ba7	0.11437159
156	0xbdffb5af	-0.12485825
157	0x3cb44054	0.02200333
158	0x3bb59ebb	0.005542604
159	0x3cb8648d	0.022508884
160	0x3d037cd1	0.032101456
161	0x3e5ab281	0.21357156
162	0xbd259c62	-0.04043234
163	0xbceba5f4	-0.028765656
164	0xbc620db4	-0.013797212
165	0x3dcb3b61	0.09923435
166	0xbd946fcc	-0.07247886
167	0x3e82c7ce	0.25543064
168	0x3c1d3e39	0.009597355
169	0xbdd41d04	-0.10357097
170	0xbe314953	-0.17313127
171	0x3d6130bc	0.054978117
172	0xbbf31b2a	-0.0074190097
173	0x3dcbb057	0.099457435
174	0x3d3fedbf	0.04685759
175	0x3d42d585	0.04756691
176	0x3dfbc874	0.12294093
177	0x3a232c3a	0.0006224547
178	0x3e180743	0.1484652
179	0xbddcd214	-0.10782257
180	0xbdd9ad35	-0.1062874
181	0x3d84a0f0	0.06476009
182	0x3db21503	0.08695414
183	0x3dc9e127	0.098573975
184	0xbd280025	-0.041015763
185	0x3d235ee1	0.039885405
186	0xbdbc4c8d	-0.091942884
187	0xbe227106	-0.15863428
188	0xbdc69825	-0.09696988
189	0xbd773850	-0.06035644
190	0xbd8f45ef	-0.06995761
191	0x3c32d952	0.010916071
192	0xbd7cf22c	-0.06175439
193	0xbd47d27d	-0.04878472
194	0xbd22adef	-0.039716657
195	0xbd33379b	-0.0437542
196	0x3d532bb9	0.05155537
197	0x3d7604ce	0.060063176
198	0x3d8aacc1	0.067712314
199	0x3d36c41a	0.04462061
200	0x3d8d8cef	0.069116466
201	0x3e1ae685	0.15126999
202	0xbe034c8b	-0.12822168
203	0x3d81e6c4	0.06342843
204	0xbcb34076	-0.021881323
205	0xbcf4b5a3	-0.029871767
206	0xbc2629e7	-0.010141826
207	0xbdb89532	-0.09012832
208	0xbd7073c6	-0.05870416
209	0x3d4b44fb	0.04962633
210	0x3c97bc6e	0.018522467
211	0xbe137ba8	-0.1440264
212	0x3cff3273	0.031151986
213	0xbe22debd	-0.1590528
214	0x3d478c31	0.04871768
215	0x3dfde71f	0.123975985
216	0xbcba7ec8	-0.022765532
217	0x3d908974	0.07057467
218	0x3bc67cc0	0.006057352
219	0x3c7d85b5	0.015473773
220	0x3df081af	0.11743485
221	0xbd30dfc1	-0.04318214
222	0xbd01ceb3	-0.031691264
223	0x3bb24c58	0.00544123
224	0x3c9f633c	0.019456498
225	0x3ddedaec	0.108816
226	0xbc53f7b9	-0.01293748
227	0xba7026c1	-0.0009161048
228	0x3dc2b169	0.095064946
229	0xbd139d4e	-0.03603869
230	0x3dc7217f	0.09723186
231	0xbdd56d3f	-0.10421228
232	0x3d01e638	0.031713694
233	0x3ca55b41	0.020185115
234	0x3dbd2312	0.09235205
235	0x3df92f3e	0.12167214
236	0x3e165aa9	0.14683022
237	0x3b74eb1f	0.0037371588
238	0xbe87d4e2	-0.26529604
239	0x3c8e6858	0.01738374
240	0xbc02e2e7	-0.007988668
241	0x3c89a040	0.016800046
242	0x3cff1f38	0.031142816
243	0xbd2a5c86	-0.041592143
244	0x3d88f514	0.0668737
245	0x3da8efe4	0.082488805
246	0x3e25e047	0.16198836
247	0x3c9c473e	0.01907694
248	0x3e1a7826	0.15084895
249	0xbdd61386	-0.104529426
250	0xbb280b43	-0.0025641478
251	0xbd5b6b71	-0.05356926
252	0x3e1775e6	0.14791068
253	0xbda333b6	-0.079688475
254	0xbd17fa4a	-0.03710393
255	0xbc4a11bc	-0.01233333
