models/mic_classifier/layers/VeltriAMPClassifier_convolution/0_weight.npy (npy, 524416 bytes, 1 tensors)

array f4 [16, 128, 64]
00000000: 57cf 053e 2fcb f8bd 4dfe 123e 1a12 073e
00000010: 8f99 9c3d 66b6 97bd 6431 e4bd a5b9 e3bd
00000020: 9a28 3cbd 47d3 b2bd 1895 fd3d 7a67 903d
00000030: 3e6d 6fbd 087f 7b3b f7f8 e13d 2252 3ab9
00000040: c80b 09be 2d7a 58bd 109e 013e 4e73 f5bc
00000050: 585d 77bd d7fa c83d 9642 11be 9028 b1bd
00000060: 08f1 07be b4c7 38bd acce 903d 2e8e 833d
00000070: c124 d7bc 71c3 0dbe 430e 60bd 7759 8e3d
00000080: c925 39bd 5f57 8c3d 3f2b 44be fb0c 51bd
00000090: e075 d33d b734 46bc 64fd 3d3c ad89 b8bc
000000a0: 34d2 463d 6662 0bbe 5f70 ebbd f036 143e
000000b0: 110a af3d e4c4 6e3d fd99 c43c 1d78 12be
000000c0: d6ff febc db9d 153e 4a02 d33d 6555 bf3d
000000d0: 76cd 6abe ad31 6d3d 9b1d babd f655 40bd
000000e0: bd7f 1ebd 4da7 81be 6a35 933c 37fc 053c
000000f0: 11ac 10bd c45c 91bc b694 423e 0d48 af3d
00000100: 1e85 f7bd 600b 623d 76f5 d0bc 2715 2e3d
00000110: bff5 0cbd 006c 57bd f2fe d9bd 66b3 37bb
00000120: 2b52 0a3d cf9e 62bd e27d 93bd 39d8 393d
00000130: f1ad 11bd db6e f73d 617d 73bd 4ecc 2e3d
00000140: b5bd afbd ea37 edbd dd97 0e3d 6acd 41bd
00000150: f8aa a03d 1eed 873d 6b09 88bc 8c2e bdbc
00000160: 287e c33d 01c7 963d 8ee0 2b3e b2de 813d
00000170: 1333 0e3e 8622 8cbd 28d6 133d d6b5 40bc
00000180: 726b e2bd 1e04 cf3d d574 e03c 33e3 63bd
00000190: 4d5c 88bd c643 56bd 6f19 353d 448d 8abc
000001a0: 2129 693d 35c0 2fbe 348a 923d a1c5 a3bd
000001b0: e051 9fbd 3b14 8f3d 6f5a 443c c1f2 fdbd
000001c0: b34d 873d 3d5d c1bd aabd 133e cb85 a8bc
000001d0: 3e2a a03d 4e6b fcbd be9b d1bc b45e 57be
000001e0: dfcb 21be 87f9 bdbd d63a 573d be49 ad3d
000001f0: e63a a2bc 47c8 5bbb 663d afbd 0fc9 923d
00000200: e1a7 f3bb dc9a 843d c0c2 6cbe 2ee1 16bd
00000210: 8b29 03be 6e60 0abd 454e 1d3d 7a7e 5dbd
00000220: 9af5 93bd 29da 253e 46e2 803c aa32 3c3b
00000230: 9c6e 513d ffb1 933d 94c3 26be 94d7 b83a
00000240: a035 0a3e 3324 c43d 7192 7d3d 2c8e dabc
00000250: 91c8 323e b562 08bc 91cb 8fbd f8b1 443b
00000260: a292 253d 5973 223e 8034 19be c4ad d73c
00000270: 5ae0 f83c 8df3 0a3e 69cb efbd 01a7 a93d
00000280: 1e25 26bc 9ff5 09be 4f60 b73c 3489 853d
00000290: ce13 c0bc ae03 d3bc 4628 3d3c 3fc2 253d
000002a0: 71d4 7cbd 9eab 663e 2104 5e3e d116 5bbd
000002b0: 8632 4c3d b416 073d d51f a73c f411 433d
000002c0: 579d 083e 9edd bb3d 4caa 53be 1f80 c0bc
000002d0: 7ce6 b53e 55a3 8c3d e1e3 c9bb 84e3 063d
000002e0: e7d6 043e 79a4 ef3d 6318 0e3e 014d b83c
000002f0: d841 9dbd ed38 59bd 57a7 15be 6509 5cbd
00000300: 0738 983d f29c e43c f321 31bd e9b7 743c
00000310: 43da 31be 63cf 763e 9456 573d 22d8 293d
00000320: fc0d 1abd 2b66 0ebe 6873 6b3e 55f7 fdbd
00000330: 8e8b 2ebe 9216 b0bd f2bf 223d 7ab6 0ebe
00000340: a377 2d3e e17a 76bb 3955 ae3c 8d57 133d
00000350: fa84 573d 1b24 9dbd df1e 07be a0c5 a83d
00000360: 3681 17bd 360a 863d 3323 993d 5dbb eebc
00000370: 2444 05be 7a0d b6bb c2bb 613d 0d7e d7bd
00000380: b594 1dbd 3715 87bc 3fed dabd 61e8 94bd
00000390: 8dbc 72bd 0510 52bd 135c 2bbb 4ceb d3bc
000003a0: 20af 473d 2796 cc3d 6537 33be 58cf 2a3b
000003b0: 8ca9 1abc ecba 0cbe 2907 eebd 9610 b63d
000003c0: 79f0 773d 427f 353d 5dff 6dbd 942d 573d
000003d0: 9b9b f9bd 92ed e03d 5c4b b5bd ba28 b1bd
000003e0: c669 39bd 1e8a 723d 9545 95bd ad38 773d
000003f0: 2201 223d 6d8f 6d3d 7d77 523d 47c7 d83d
0.13067375 -0.12148129 0.1435482 0.13190499 0.076464765 -0.074078366 -0.11142233 -0.11119393
-0.04593716 -0.08731704 0.12381953 0.070509866 -0.05845379 0.0038375277 0.110338144 -0.00017768939
-0.133834 -0.05285089 0.12657952 -0.029962208 -0.060391754 0.09813469 -0.14185557 -0.08650315
-0.1327554 -0.045112327 0.070706695 0.06423603 -0.026262643 -0.13844086 -0.0547011 0.06950658
-0.04520205 0.06852602 -0.19157122 -0.05103777 0.10325217 -0.012097529 0.011596058 -0.022526586
0.04854031 -0.13611755 -0.114960425 0.14474082 0.08546842 0.05829324 0.023999209 -0.14303632
-0.031127851 0.14610998 0.10303171 0.093424596 -0.2292994 0.057908703 -0.09087678 -0.04695698
-0.03869604 -0.25322953 0.017969806 0.0081778085 -0.035320345 -0.01774443 0.19002041 0.085586645
-0.12085937 0.05518663 -0.02550767 0.04250064 -0.03441405 -0.05259323 -0.1064433 -0.0028030514
0.033769768 -0.055327233 -0.072017446 0.04537222 -0.035566274 0.12081691 -0.059445743 0.04267531
-0.085811056 -0.115829304 0.034812797 -0.04731504 0.0784511 0.066370234 -0.016606053 -0.023093484
0.09545547 0.07362176 0.1678488 0.06341304 0.13886671 -0.06842522 0.036092907 -0.011762103
-0.1105565 0.10108207 0.02739946 -0.055636596 -0.0665823 -0.052310728 0.04421371 -0.016913064
0.05692399 -0.17163165 0.071552664 -0.07996679 -0.07779288 0.069862805 0.011984452 -0.12399817
0.06606617 -0.09441612 0.1442782 -0.02057161 0.07820557 -0.12325154 -0.025586959 -0.2103222
-0.15800427 -0.09276109 0.052546345 0.08461331 -0.019803476 -0.0033536123 -0.08556633 0.07167255
-0.007435784 0.064748496 -0.23121166 -0.03683584 -0.12808816 -0.03378337 0.03840472 -0.054075696
-0.07224579 0.16196503 0.015732896 0.0028716722 0.051130876 0.072116844 -0.16285545 0.0014102333
0.13497019 0.09577217 0.061907236 -0.026679121 0.17459323 -0.008324315 -0.07021249 0.0030013304
0.040423043 0.15864314 -0.14961433 0.026327975 0.030380417 0.1356947 -0.11708719 0.082838066
-0.010140685 -0.13472603 0.02238479 0.0652031 -0.023446944 -0.02575859 0.0115452465 0.04046845
-0.061726037 0.22526404 0.21681263 -0.053488556 0.04985287 0.032980636 0.02040092 0.047624543
0.1334127 0.091731295 -0.20670432 -0.023498593 0.35527408 0.068670906 -0.0061611985 0.03293182
0.12972604 0.117012925 0.1387649 0.022497656 -0.07678574 -0.053032804 -0.14614616 -0.053719897
0.07432561 0.027906869 -0.043245267 0.014936426 -0.17368416 0.24102549 0.0525728 0.041465886
-0.037610993 -0.13906161 0.22993243 -0.124006905 -0.17045423 -0.08598055 0.039733835 -0.13936797
0.16940169 -0.0037609863 0.021280872 0.035972167 0.05261705 -0.07672902 -0.1319537 0.08240819
-0.03698846 0.06544916 0.07477417 -0.029142076 -0.13014275 -0.0055558058 0.0551107 -0.10522089
-0.038471896 -0.016489608 -0.10689782 -0.07270885 -0.059261847 -0.05128481 -0.002614741 -0.025869034
0.048750997 0.09989577 -0.175016 0.0026063528 -0.009439837 -0.1374318 -0.116224594 0.08889882
0.060532067 0.044310816 -0.05810486 0.0525337 -0.121878825 0.10982813 -0.08852264 -0.08650346
-0.04526689 0.05921375 -0.07288662 0.060356785 0.03955186 0.05799811 0.051383484 0.10584884
