models/PepCVAE/layers/VeltriAMPClassifier_lstm/1_weight.npy (npy, 160128 bytes, 1 tensors)

array f4 [100, 400]
0	0xbc8c366b	-0.017115792
1	0xbd9acf48	-0.07559067
2	0xbd5e9e94	-0.05435045
3	0xbbe38765	-0.0069436305
4	0xbd390bf6	-0.045177422
5	0xbe57edc1	-0.2108679
6	0xbc254f04	-0.01008964
7	0xbdc02ebe	-0.09383915
8	0xbddc96dd	-0.107709624
9	0xbd18f098	-0.037338823
10	0xbd1ec3c2	-0.038760908
11	0xbd7eeaf8	-0.062235802
12	0xbde16f68	-0.11007577
13	0xbda51c0c	-0.0806199
14	0xbda3119a	-0.079623416
15	0x3dbd8120	0.09253144
16	0xbc8c6676	-0.017138701
17	0xbe1b458b	-0.15163247
18	0x3bace0c3	0.005275817
19	0xbd3df21a	-0.046373464
20	0xba43e1ab	-0.0007472287
21	0xbcf17502	-0.029474739
22	0xbd692536	-0.056920253
23	0xbdd4bd25	-0.10387639
24	0xbe034ff5	-0.1282347
25	0xbe0061d2	-0.12537315
26	0xbd82814b	-0.06372317
27	0xbdc195b1	-0.094523795
28	0x3dcd9470	0.10038078
29	0x3d1fd0ff	0.039017674
30	0xbd1fe2ab	-0.039034527
31	0xbc0ea13a	-0.008705432
32	0x3d41a2b1	0.047274295
33	0xbc80c72e	-0.015719976
34	0x3c931f0c	0.01795914
35	0xbdc1b1ce	-0.09457742
36	0x3d0034b5	0.031300265
37	0xbbc4e399	-0.006008577
38	0xbe02f7e8	-0.12789881
39	0xbda51bbd	-0.08061931
40	0x3a8f5b4d	0.0010937244
41	0xbdffe479	-0.124947496
42	0xbc212911	-0.009836451
43	0x3da2ef1a	0.07955761
44	0x3c13e378	0.009026401
45	0xbdd1f81c	-0.10252401
46	0xbdda33e0	-0.106544256
47	0x3d456863	0.048195254
48	0xbdf1a1b3	-0.1179842
49	0xbe1696c3	-0.14705949
50	0x3d18b4e7	0.037281897
51	0xbd7f55d1	-0.0623377
52	0xbc1fa9f1	-0.009745107
53	0x3d42e603	0.047582638
54	0x3c1f2909	0.009714373
55	0xbd4df87e	-0.05028581
56	0x3ca55f36	0.020187002
57	0xba5125b2	-0.00079783343
58	0xbde44002	-0.11145021
59	0xbdb87bf3	-0.090080164
60	0xbe1413ad	-0.1446063
61	0xbd86004e	-0.06543027
62	0xbd4d0134	-0.050049976
63	0xbd69d180	-0.05708456
64	0xbd961508	-0.0732823
65	0xbd814d2e	-0.06313549
66	0xbe3fa2f9	-0.18714513
67	0xbdb44cb2	-0.08803691
68	0xbc306546	-0.010766333
69	0xbdd04c2f	-0.10170781
70	0xbcfe19d1	-0.03101817
71	0xbe8933a1	-0.26797202
72	0xbdcfa531	-0.1013893
73	0xbe192a38	-0.14957511
74	0xbdcd784c	-0.100327104
75	0xbda91ec7	-0.082578234
76	0xbccd5b8a	-0.025068063
77	0xbd7790f4	-0.060440972
78	0xbc2a6ee6	-0.010402417
79	0xbd4ad2ec	-0.049517557
80	0xbb5c4361	-0.0033609497
81	0xbdc2da72	-0.095143214
82	0xbcb4b106	-0.022057068
83	0x3c36f4bb	0.011166747
84	0xbd6eae70	-0.058271825
85	0xbe327780	-0.17428398
86	0xbe29872a	-0.16555467
87	0x3ca21fed	0.019790614
88	0xbd56e4a0	-0.052464128
89	0x3cfe9fe8	0.031082109
90	0xbdeb9142	-0.11502315
91	0xbd6aa4b3	-0.057285976
92	0xbe01b161	-0.12665321
93	0xbe287957	-0.16452537
94	0x3d88f77c	0.06687829
95	0xbd63ded5	-0.05563243
96	0xbd9de13e	-0.07708977
97	0xbdf34cd1	-0.11879886
98	0xbe136047	-0.14392196
99	0xbd1d1d7b	-0.038358193
100	0x3c2c7774	0.010526527
101	0xbddef4d3	-0.1088654
102	0xbda6fdc6	-0.08153872
103	0x3e2b2cf3	0.16716366
104	0xbcb6a783	-0.022296673
105	0xbdea1601	-0.11429978
106	0xbd8d6ea2	-0.06905867
107	0xbdc00a02	-0.09376909
108	0x3db4382c	0.087997764
109	0xbd4456cc	-0.04793434
110	0xbd9f62f6	-0.07782547
111	0x3d9800c1	0.07422019
112	0xbe32861c	-0.17433971
113	0x3bf6fcab	0.0075374446
114	0xbc9801bd	-0.018555516
115	0xbd95426f	-0.07288062
116	0x3c5dc00a	0.013534555
117	0xbe408653	-0.1880124
118	0xbc712e61	-0.01472053
119	0xbdae1b76	-0.085013315
120	0xbd97aca6	-0.07405977
121	0x3d1a2ac3	0.037638437
122	0x3c14110f	0.00903727
123	0xbdb41787	-0.0879355
124	0xbd87024a	-0.065922335
125	0xbda79717	-0.08183115
126	0xbd4f852b	-0.05066411
127	0x3da1e315	0.079046406
128	0x3bffb205	0.007803204
129	0xbcf0e26a	-0.029404838
130	0x3d8c6a94	0.06856266
131	0xbcec1877	-0.02882026
132	0x3b14f442	0.0022728597
133	0xbdcdacd3	-0.10042729
134	0x3e1d474d	0.1535923
135	0xbda735b9	-0.08164544
136	0xbdeaa2d4	-0.11456838
137	0xbdf6db8e	-0.120535955
138	0xbd0401e2	-0.032228358
139	0xbc18f694	-0.009336133
140	0xbd2553fe	-0.040363304
141	0x3e92799f	0.28608415
142	0xbdcb7323	-0.0993407
143	0xbda027dc	-0.078201026
144	0xbe3dcfab	-0.1853625
145	0xbdf71499	-0.120644756
146	0x3d8d04f2	0.06885709
147	0xbd5d10ca	-0.05397109
148	0x3be4d88c	0.006983822
149	0x3b3ade35	0.0028513793
150	0xbe0ff8d0	-0.14059758
151	0xbd6c7a24	-0.05773367
152	0xba169f64	-0.0005745797
153	0xbcf58777	-0.029971821
154	0x3d3a288e	0.045448832
155	0xbdb0b3bf	-0.08628034
156	0xbd9f0c16	-0.07765977
157	0xbd600daa	-0.05470053
158	0xbcbae215	-0.022812882
159	0xbe0f5133	-0.13995819
160	0xbd18f515	-0.037343103
161	0xbe01dec3	-0.12682633
162	0xbe545a52	-0.2073758
163	0xbe18ad29	-0.14909805
164	0xbd041384	-0.032245174
165	0xbe02d27b	-0.12775604
166	0xbd22d773	-0.03975625
167	0x3dcc97ff	0.099899285
168	0x3c020d17	0.007937691
169	0xbbccb512	-0.006247171
170	0x3c9a7a27	0.018857075
171	0x3e2d74d7	0.16939102
172	0xbd831dbe	-0.06402157
173	0xbd70398e	-0.05864864
174	0xbd7ab90b	-0.061211627
175	0xbe0c2d19	-0.13689078
176	0xbda77ffc	-0.08178708
177	0xbd7e075f	-0.06201875
178	0xbd82bba7	-0.06383448
179	0xbdfa763d	-0.122295834
180	0xba814ab2	-0.000986418
181	0xbe07fa5f	-0.13279103
182	0xbd459e86	-0.048246883
183	0xbcbff6c2	-0.023433093
184	0xbb002c87	-0.001955779
185	0xbe06e77f	-0.13174246
186	0x3c403317	0.011730931
187	0x3d6c0242	0.05761934
188	0xbd739724	-0.05947031
189	0xbd0c1bf1	-0.034206335
190	0xbdf93eb9	-0.121701665
191	0xb8dd706f	-0.000105590436
192	0x3c02c430	0.007981345
193	0x3d5f0b38	0.05445406
194	0xbd210b06	-0.039317153
195	0xbd9934cb	-0.074807726
196	0x3b2726dc	0.002550534
197	0x3ca1aeec	0.01973673
198	0x3c965135	0.01834927
199	0xbdc0926f	-0.0940293
200	0x3cd6cf6b	0.026221951
201	0xbd1d084f	-0.038338
202	0x3d79f29a	0.06102238
203	0xbc51ddb5	-0.012809207
204	0x3df983fa	0.12183376
205	0x3dac49ff	0.08412551
206	0x3daa0546	0.08301787
207	0x3d8e7a3a	0.069569066
208	0xbbd82fae	-0.0065974807
209	0x3d59a2f3	0.053133916
210	0xbb8c5d46	-0.00428358
211	0x3cbf0ef9	0.02332257
212	0xbd213478	-0.03935668
213	0xbc7bf268	-0.015377618
214	0x3c2c4802	0.010515215
215	0x3a3c015e	0.00071718346
216	0x3d42ddd7	0.047574844
217	0x3dc7eaf9	0.09761614
218	0x3c3a7a00	0.011381626
219	0x3c54ad35	0.012980749
220	0x3d581e62	0.05276335
221	0xbd68c225	-0.056825776
222	0xbd54575f	-0.051841136
223	0xbcf53c2f	-0.029935924
224	0x3d8b500e	0.068023786
225	0xbc790f3a	-0.015201384
226	0x3c35b596	0.011090657
227	0x3dc3a555	0.09553019
228	0x3c20e41e	0.009820012
229	0x3b9ce1ed	0.0047876746
230	0x3d3900d4	0.045166805
231	0x3d2211e6	0.03956785
232	0x3d3b373c	0.045706972
233	0x3d493769	0.04912511
234	0x3c15e21a	0.009148145
235	0xbdb68f72	-0.08914079
236	0x3c697d2a	0.014251033
237	0xbd95ac06	-0.073082015
238	0xbda1c510	-0.07898915
239	0x3d3df627	0.046377327
240	0x3d4aeb8c	0.04954104
241	0xbde26d7e	-0.1105604
242	0x3d9e1f92	0.07720865
243	0xbd654a9b	-0.055979352
244	0x3d36a987	0.044595268
245	0x3d250e45	0.04029681
246	0x3d82d877	0.06388944
247	0x3c3faced	0.011698944
248	0xbdab3318	-0.08359355
249	0xbd81c49c	-0.063363284
250	0xbb3aecc8	-0.002852248
251	0xbc380eb5	-0.011233975
252	0xbd8dd9a8	-0.0692628
253	0xbd71f593	-0.05907209
254	0x3d0148bf	0.031563517
255	0x3dae60b8	0.085145414
