models/PepCVAE/layers/VeltriAMPClassifier_lstm/2_weight.npy (npy, 1728 bytes, 1 tensors)

array f4 [400]
0.00010540425 -0.015871217 -0.028136246 0.058627605 0.012054967 0.026982352 -0.04039348 0.008461864
0.0023257125 -0.02063455 0.047481008 0.13967383 -0.014690131 -0.00012888976 -0.0007131384 0.0852083
-0.043409288 0.0454095 0.047318585 -0.0281575 -0.0427395 0.028062403 0.0036363318 -0.1320267
0.009826617 0.009221945 0.0066943765 -0.0394433 0.04518835 0.0055271992 -0.030723237 -0.05202897
0.017484384 -0.0057678563 0.008963863 0.03578814 -0.017464805 -0.0065334365 0.04386117 0.018062333
0.031001607 0.02283818 -0.042438317 0.016460821 -0.012304963 0.03416 -0.0538468 0.022770358
-0.062431827 -0.029389365 -0.04077661 -0.019398773 -0.044459675 0.04594069 -0.027510028 -0.045924235
-0.07101401 -0.035125963 -0.056042522 0.019206475 -0.013595396 0.002187852 -0.049159463 -0.022192836
0.0035668989 0.0023210112 0.057062063 -0.047672413 0.008976093 -0.00410796 -0.0036393085 -0.016249387
-0.041005317 0.15963386 -0.006104223 0.01041419 -0.038570657 0.009272953 -0.0015079887 -0.0032698931
-0.0068107517 -0.0064192316 0.039698813 -0.013649921 0.049357153 -0.03730973 0.047160562 0.02273175
-0.015456061 0.000616473 5.9813843e-05 0.028131766 -0.021853035 -0.034593727 0.040060177 0.041856673
-0.015011343 -0.0555611 -0.01078672 0.03594311 1.035717 1.0426677 1.0409278 0.942916
1.0539516 1.0598434 1.0258888 1.0360382 1.0615255 1.0644851 1.08528 1.0146127
1.031154 1.08032 1.0724028 0.9702759 0.99990636 1.000595 1.0962021 1.0845258
1.0324314 1.0992033 1.0420268 0.90904206 1.036082 1.0711434 1.018403 1.0258754
0.9116643 1.0711243 1.0435591 0.9876202 1.063014 1.0605044 1.0598465 1.09503
1.0424837 1.0834712 1.0976301 1.0882678 1.059105 1.0585349 0.98872054 1.0416391
0.98690987 1.0140967 1.0448898 1.0717559 1.0338061 1.0142177 1.006308 1.0326502
1.0604424 1.0508447 1.0416937 1.0269789 0.98384243 1.0260826 1.0339445 1.0692173
1.0606414 1.0641025 0.9816621 1.052137 1.0545725 1.0119437 1.0211002 1.0088863
1.0536027 1.0567902 1.052582 1.0104132 1.0299629 1.0088717 1.0535586 1.0414407
1.0089334 1.0752245 1.0377344 1.045508 1.03444 1.0337301 1.0908406 1.0428048
1.1372879 1.0078791 1.0886912 1.052637 1.0194157 1.0868595 1.0642664 0.9469319
1.049937 1.0139902 1.0946825 0.9550395 1.0939331 1.0609626 1.0548798 1.0774883
-0.04242356 -0.017042402 0.0016483876 0.049102917 -0.008902859 -0.0075322744 0.018867986 0.19293441
-0.018115088 -0.010935315 0.016725395 -0.07749091 0.023266671 0.033212006 -0.0046286494 -0.041525062
-0.018688899 0.12865935 -0.02075392 0.003713133 -0.0075167124 -0.024248358 -0.0077251648 -0.011631868
-0.014775248 0.022970565 -0.0006291869 -0.0008815993 -0.042377144 0.018664895 -0.0050119944 0.04023845
-0.0067563425 -0.02932691 -0.0339202 -0.00354333 -0.031048963 0.012555071 0.028875122 -0.029654738
-0.02215941 -0.07441276 -0.02485779 0.03383937 -0.038588002 -0.025533846 0.0003128421 -0.0155227715
0.02784085 -0.002318016 -0.019039836 -0.008084071 -0.0011975011 0.030741364 0.002856438 0.035196
00000000: 7a0c dd38 5b04 82bc fc7d e6bc 8023 703d
00000010: 3282 453c 180a dd3c a273 25bd a1a3 0a3c
00000020: fb6a 183b ca09 a9bc 727b 423d a806 0f3e
00000030: e0ae 70bc 9526 07b9 e8f1 3aba b081 ae3d
00000040: f0cd 31bd 50ff 393d 22d1 413d 8faa e6bc
00000050: 9d0f 2fbd 20e3 e53c 864f 6e3b 0232 07be
00000060: d2ff 203c a417 173c 805c db3b 4c8f 21bd
00000070: 6b17 393d 821d b53b 4caf fbbc 541c 55bd
00000080: 693b 8f3c 4900 bdbb 2bdd 123c 9696 123d
00000090: 5a12 8fbc 7016 d6bb c5a7 333d 75f7 933c
000000a0: 15f7 fd3c 2317 bb3c cdd3 2dbd d8d8 863c
000000b0: c19a 49bc 5beb 0b3d 768e 5cbd e788 ba3c
000000c0: 84b8 7fbd f7c1 f0bc 6005 27bd 2dea 9ebc
000000d0: 591b 36bd 4e2c 3c3d b65c e1bc 0d1b 3cbd
000000e0: cb6f 91bd 3ee0 0fbd d88c 65bd e656 9d3c
000000f0: 39bf 5ebc 1162 0f3b 6f5b 49bd c0cd b5bc
00000100: a2c2 693b 1b1c 183b e9b9 693d 2644 43bd
00000110: 7610 133c 119c 86bb 7781 6ebb 6f1d 85bc
00000120: 31f5 27bd 0f77 233e ef05 c8bb 47a0 2a3c
00000130: 44fc 1dbd 95ed 173c b4a7 c5ba b44b 56bb
00000140: ba2c dfbb 6b58 d2bb 399b 223d eba3 5fbc
00000150: ba2a 4a3d 16d2 18bd 6f2b 413d ef37 ba3c
00000160: 6b3b 7dbc cd9a 213a a0e0 7a38 9774 e63c
00000170: 2305 b3bc 27b2 0dbd 2416 243d e771 2b3d
00000180: 23f2 75bc 0994 63bd c8ba 30bc 1539 133d
00000190: 6092 843f 2376 853f 1f3d 853f f162 713f
000001a0: e3e7 863f f3a8 873f 5350 833f e69c 843f
000001b0: 11e0 873f 0c41 883f 74ea 8a3f d4de 813f
000001c0: dbfc 833f ed47 8a3f 7f44 893f 0064 783f
000001d0: ddf9 7f3f 7f13 803f 5a50 8c3f bed1 8a3f
000001e0: b626 843f b2b2 8c3f 2261 853f fbb6 683f
000001f0: 569e 843f 3a1b 893f 085b 823f e34f 833f
00000200: d562 693f 9a1a 893f 5893 853f add4 7c3f
00000210: d810 883f 9cbe 873f 0da9 873f f129 8c3f
00000220: 1b70 853f 2faf 8a3f 257f 8c3f 5c4c 8b3f
00000230: c190 873f 127e 873f ca1c 7d3f 6e54 853f
00000240: 20a6 7c3f eccd 813f f3be 853f 4c2f 893f
00000250: c253 843f e3d1 813f b3ce 803f e22d 843f
00000260: 94bc 873f 1482 863f 3856 853f 0b74 833f
00000270: 19dd 7b3f ad56 833f 4b58 843f 1ddc 883f
00000280: 19c3 873f 8334 883f 354e 7b3f 6dac 863f
00000290: 3bfc 863f 5f87 813f 69b3 823f 3023 813f
000002a0: 74dc 863f e744 873f 02bb 863f 3855 813f
000002b0: d3d5 833f b522 813f 02db 863f ee4d 853f
000002c0: bb24 813f f5a0 893f 7bd4 843f 35d3 853f
000002d0: 8868 843f 4551 843f aaa0 8b3f a17a 853f
000002e0: a692 913f 2f02 813f 3c5a 8b3f cfbc 863f
000002f0: 377c 823f 361e 8b3f e239 883f 216a 723f
00000300: 5664 863f 6eca 813f 8e1e 8c3f 787d 743f
00000310: 0006 8c3f 9fcd 873f 4d06 873f 23eb 893f
00000320: 54c4 2dbd 829c 8bbc b60e d83a 2420 493d
00000330: 4cdd 11bc 4cd1 f6bb 0991 9a3c 9990 453e
00000340: 1866 94bc 092a 33bc b203 893c 8eb3 9ebd
00000350: bf99 be3c 5009 083d edab 97bb 2f16 2abd
00000360: 7619 99bc 47bf 033e 2004 aabc 0958 733b
00000370: c14e f6bb 7ea4 c6bc 6123 fdbb 9793 3ebc
00000380: e213 72bc c42c bc3c 05f0 24ba 211b 67ba
00000390: a893 2dbd 1fe7 983c a83b a4bb 13d1 243d
000003a0: 4f64 ddbb fd3e f0bc e8ef 0abd 3637 68bb
000003b0: 655a febc c9b3 4d3c 858b ec3c 7eee f2bc
000003c0: a787 b5bc b865 98bd 90a2 cbbc 279b 0a3d
000003d0: 740e 1ebd 5b2c d1bc f504 a439 3953 7ebc
000003e0: 7f12 e43c dbe9 17bb 6ef9 9bbc 0d73 04bc
000003f0: 78f5 9cba 50d5 fb3c 1433 3b3b ae29 103d
