models/Basic/layers/VeltriAMPClassifier_dense_output/0_weight.npy (npy, 528 bytes, 1 tensors)

array f4 [100, 1]
0.28715238 -0.087567426 -0.2549689 -0.32059526 -0.2881327 -0.44662604 0.06394064 -0.41265726
-0.21139896 0.27388135 0.19313003 0.42505822 0.07154006 -0.3268603 -0.34661677 0.31571662
-0.11979203 -0.37769294 -0.21340616 -0.18864647 0.14551558 -0.28766525 -0.2730918 -0.03116139
-0.2813705 0.293223 -0.37727922 -0.1871921 0.28957093 0.36514825 0.31462237 0.031795505
-0.38416582 -0.09531416 0.008772202 -0.28894627 0.010404021 0.21136113 0.36264253 -0.30429542
-0.32987565 0.0445757 0.069875546 -0.07596282 0.13406485 0.24232091 0.15463945 -0.28249764
-0.32489935 -0.18205546 -0.121205315 0.31075427 -0.23985358 -0.043907985 -0.3410319 0.04221461
0.089248896 0.29890335 0.17250587 -0.15875115 0.14929283 0.3016331 -0.046481874 0.2339458
0.19629773 0.08745594 0.35445204 0.054877277 0.3469111 -0.33916214 0.05572722 -0.046970673
-0.14548145 -0.49400792 0.33871555 0.2001968 -0.056892112 -0.1317458 0.38991272 -0.18120688
-0.022154192 0.22254479 -0.26567507 0.20052436 -0.03776185 0.03542388 -0.16621156 0.08840746
0.1763732 -0.21576217 -0.20602863 0.3669416 0.34654242 0.07960034 -0.35893843 0.31682625
-0.28874922 0.13065286 0.22407532 -0.3999871
00000000: a305 933e 8d56 b3bd 498b 82be 1025 a4be
00000010: 2186 93be 2bac e4be 4ff3 823d d047 d3be
00000020: f878 58be 2d3a 8c3e e1c3 453e 3ba1 d93e
00000030: 9883 923d 3c5a a7be c177 b1be 9ca5 a13e
00000040: 8655 f5bd f860 c1be 2587 5abe 8a2c 41be
00000050: 0902 153e dc48 93be b0d2 8bbe 2c46 ffbc
00000060: cb0f 90be 5321 963e be2a c1be 49af 3fbe
00000070: a442 943e b6f4 ba3e 2f16 a13e 013c 023d
00000080: 62b1 c4be 1234 c3bd 48b9 0f3c c4f0 93be
00000090: a075 2a3c 0d6f 583e 48ac b93e 9ccc 9bbe
000000a0: 76e5 a8be 0295 363d e91a 8f3d 6592 9bbd
000000b0: 4c48 093e f922 783e ce59 1e3e 88a3 90be
000000c0: 3559 a6be bf6c 3abe 7e3a f8bd 2f1b 9f3e
000000d0: 2d9c 75be dcd8 33bd bc9b aebe 3ae9 2c3d
000000e0: 20c8 b63d dc09 993e 61a5 303e a98f 22be
000000f0: 38e0 183e a76f 9a3e c763 3ebd 7d8f 6f3e
00000100: 4602 493e 1a1c b33d bd7a b53e ffc6 603d
00000110: 559e b13e a9a6 adbe 3a42 643d 5264 40bd
00000120: 17f9 14be 9bee fcbe 206c ad3e 6400 4d3e
00000130: b407 69bd 5fe8 06be a4a2 c73e 4c8e 39be
00000140: b57c b5bc c8e2 633e 9006 88be 4256 4d3e
00000150: 2bac 1abd a118 113d 5d33 2abe f80e b53d
00000160: 2d9b 343e c2f0 5cbe 2bf9 52be c5df bb3e
00000170: 026e b13e 8105 a33d c7c6 b7be 0d37 a23e
00000180: f0d6 93be ddc9 053e 0074 653e 1ccb ccbe
